Code/TensorFlow/export/RoadLiteMobileNetV2.tflite (tflite, 684648 bytes, 54 tensors)

tfl.pseudo_qconst1 i1 [7, 48]
70 -22 113 0 -5 -55 36 91
70 0 68 2 -7 -17 70 -109
83 108 -127 -4 -12 -53 12 -96
50 89 90 74 109 28 14 -63
101 -87 41 -24 -86 69 -3 -78
-18 -25 -33 -107 81 -5 9 -11
-104 127 107 -4 -3 61 38 -11
-74 -118 85 -17 -6 -105 85 -7
-64 112 100 -6 90 -56 96 37
23 -43 98 -124 -9 121 83 9
0 46 100 -26 42 10 -6 -38
-74 75 -32 90 -32 -6 125 1
-39 -68 107 8 -14 -98 85 -38
-49 4 115 57 -15 -38 -57 54
65 -6 -120 -9 -11 -13 4 -43
46 -127 -9 -26 80 72 -39 -65
105 -110 -55 22 -20 -1 -2 -29
40 -99 42 109 105 -8 -107 -17
-17 108 -75 -10 11 -4 -51 2
-16 -12 -70 -101 -17 66 81 68
-38 68 35 -12 96 -104 -29 -29
68 10 -3 45 -91 -127 54 41
56 22 -78 8 -124 -52 -12 -11
1 61 -29 -81 -114 -13 -64 -49
4 -66 109 -4 -2 -28 88 77
-51 42 51 -40 -6 52 -105 -117
10 -120 70 -6 90 87 -9 47
-14 45 93 109 -43 -127 -46 -9
-93 46 50 -43 -9 7 -6 -56
63 28 85 66 -51 -6 15 -3
-100 62 55 -13 -3 102 75 -22
42 -74 23 -23 -8 101 -88 93
00000000: 46ea 7100 fbc9 245b 4600 4402 f9ef 4693
00000010: 536c 81fc f4cb 0ca0 3259 5a4a 6d1c 0ec1
00000020: 65a9 29e8 aa45 fdb2 eee7 df95 51fb 09f5
00000030: 987f 6bfc fd3d 26f5 b68a 55ef fa97 55f9
00000040: c070 64fa 5ac8 6025 17d5 6284 f779 5309
00000050: 002e 64e6 2a0a fada b64b e05a e0fa 7d01
00000060: d9bc 6b08 f29e 55da cf04 7339 f1da c736
00000070: 41fa 88f7 f5f3 04d5 2e81 f7e6 5048 d9bf
00000080: 6992 c916 ecff fee3 289d 2a6d 69f8 95ef
00000090: ef6c b5f6 0bfc cd02 f0f4 ba9b ef42 5144
000000a0: da44 23f4 6098 e3e3 440a fd2d a581 3629
000000b0: 3816 b208 84cc f4f5 013d e3af 8ef3 c0cf
000000c0: 04be 6dfc fee4 584d cd2a 33d8 fa34 978b
000000d0: 0a88 46fa 5a57 f72f f22d 5d6d d581 d2f7
000000e0: a32e 32d5 f707 fac8 3f1c 5542 cdfa 0ffd
000000f0: 9c3e 37f3 fd66 4bea 2ab6 17e9 f865 a85d

tfl.pseudo_qconst3 i1 [48, 1280]
9 49 -46 -44 -11 43 -17 97
5 -17 40 -51 -11 -43 45 -5
-65 -26 -93 -97 12 73 19 -49
-14 8 -61 6 29 -33 30 -67
-64 63 -80 -51 47 -42 -19 22
0 -47 -68 -32 18 -65 -82 -54
8 -80 -14 -70 25 -11 -33 41
-19 -31 33 -16 -17 -95 -28 -62
9 40 -33 18 -104 -80 -19 -8
-35 -28 -31 -63 18 12 -68 -57
-48 -87 -73 -19 -37 -25 -92 -70
-7 10 -2 -44 20 84 47 34
-90 13 51 -34 9 -83 56 -62
-68 -66 -60 -43 -41 22 -25 -101
-58 60 13 41 -9 57 23 27
-92 5 14 -73 -88 -69 -26 -81
19 -26 -34 32 -23 5 -16 -8
-38 4 33 2 20 -26 -24 -17
-2 -4 -53 -26 56 22 -19 52
-100 -24 0 9 7 -22 43 11
-34 -53 -19 4 -12 -74 67 32
45 -83 -112 -27 28 -51 -49 -30
75 -33 -12 -55 -57 -27 -23 -20
13 52 23 94 -75 -4 -42 -59
68 -37 35 -58 -85 36 -17 23
-52 -73 12 15 23 -39 18 -74
2 -44 57 -58 -51 -36 42 -49
-53 37 -79 10 -43 -58 -54 23
-67 68 -3 -32 -1 -33 31 -31
-80 -20 20 6 -22 -26 17 15
-74 -49 -9 -21 -43 -62 -74 29
-57 -35 -76 -7 60 -87 -11 15
00000000: 0931 d2d4 f52b ef61 05ef 28cd f5d5 2dfb
00000010: bfe6 a39f 0c49 13cf f208 c306 1ddf 1ebd
00000020: c03f b0cd 2fd6 ed16 00d1 bce0 12bf aeca
00000030: 08b0 f2ba 19f5 df29 ede1 21f0 efa1 e4c2
00000040: 0928 df12 98b0 edf8 dde4 e1c1 120c bcc7
00000050: d0a9 b7ed dbe7 a4ba f90a fed4 1454 2f22
00000060: a60d 33de 09ad 38c2 bcbe c4d5 d716 e79b
00000070: c63c 0d29 f739 171b a405 0eb7 a8bb e6af
00000080: 13e6 de20 e905 f0f8 da04 2102 14e6 e8ef
00000090: fefc cbe6 3816 ed34 9ce8 0009 07ea 2b0b
000000a0: decb ed04 f4b6 4320 2dad 90e5 1ccd cfe2
000000b0: 4bdf f4c9 c7e5 e9ec 0d34 175e b5fc d6c5
000000c0: 44db 23c6 ab24 ef17 ccb7 0c0f 17d9 12b6
000000d0: 02d4 39c6 cddc 2acf cb25 b10a d5c6 ca17
000000e0: bd44 fde0 ffdf 1fe1 b0ec 1406 eae6 110f
000000f0: b6cf f7eb d5c2 b61d c7dd b4f9 3ca9 f50f

tfl.pseudo_qconst5 i1 [1280, 1, 1, 112]
56 -46 -29 -118 -26 30 -59 -4
79 -18 -4 -51 45 -53 -4 -97
-98 39 68 -5 4 -66 -41 89
-8 -105 -34 84 -82 -19 -12 17
6 21 14 -21 39 23 49 65
42 -38 63 -73 39 -28 25 -35
-15 -34 -9 29 85 -76 -14 19
17 -3 -86 41 -2 -14 -1 -17
35 -31 -11 -70 19 -37 39 72
-66 -62 -4 15 90 -60 2 15
40 19 -5 -52 6 -24 -18 -68
-84 31 -20 13 21 -58 36 4
25 -75 -54 -96 127 13 55 -20
-37 -19 -56 -66 31 -97 -73 17
16 -96 22 -27 -16 29 82 20
45 -55 27 -90 -74 -38 -47 -74
-115 48 -46 -61 38 52 -16 -46
37 7 13 10 -5 39 -44 67
-29 -23 -19 12 51 -4 17 -46
-5 -72 30 -127 20 37 -26 -52
20 -1 5 -79 49 -14 -64 -14
22 -18 -17 -23 5 43 61 -30
-76 46 -38 -7 -48 36 73 -42
41 -43 28 -66 -23 44 -47 -17
-2 4 -24 -18 -43 -50 20 11
10 -24 -107 -6 -34 -35 44 -78
28 -47 -56 -47 -45 -2 49 126
-17 -53 -3 -42 68 -17 -31 -70
23 -44 3 -15 65 14 -22 -14
-16 -41 58 -25 -4 -45 2 30
5 36 -5 -20 34 35 -11 -4
-33 24 80 -35 -7 -62 15 -18
00000000: 38d2 e38a e61e c5fc 4fee fccd 2dcb fc9f
00000010: 9e27 44fb 04be d759 f897 de54 aeed f411
00000020: 0615 0eeb 2717 3141 2ada 3fb7 27e4 19dd
00000030: f1de f71d 55b4 f213 11fd aa29 fef2 ffef
00000040: 23e1 f5ba 13db 2748 bec2 fc0f 5ac4 020f
00000050: 2813 fbcc 06e8 eebc ac1f ec0d 15c6 2404
00000060: 19b5 caa0 7f0d 37ec dbed c8be 1f9f b711
00000070: 10a0 16e5 f01d 5214 2dc9 1ba6 b6da d1b6
00000080: 8d30 d2c3 2634 f0d2 2507 0d0a fb27 d443
00000090: e3e9 ed0c 33fc 11d2 fbb8 1e81 1425 e6cc
000000a0: 14ff 05b1 31f2 c0f2 16ee efe9 052b 3de2
000000b0: b42e daf9 d024 49d6 29d5 1cbe e92c d1ef
000000c0: fe04 e8ee d5ce 140b 0ae8 95fa dedd 2cb2
000000d0: 1cd1 c8d1 d3fe 317e efcb fdd6 44ef e1ba
000000e0: 17d4 03f1 410e eaf2 f0d7 3ae7 fcd3 021e
000000f0: 0524 fbec 2223 f5fc df18 50dd f9c2 0fee

tfl.pseudo_qconst7 i1 [112, 1, 1, 336]
-112 98 -14 43 -71 64 34 24
68 -41 9 -72 -4 32 -22 -7
64 3 -24 -48 19 13 -9 -8
-6 -10 66 17 -29 -6 -19 21
13 -13 -25 32 2 -42 -62 -11
-29 124 -39 -56 28 -74 31 -9
24 -27 40 -19 21 -7 -14 16
15 -20 18 32 43 -62 1 26
-37 20 54 4 -23 -29 -58 -62
-9 45 -38 -12 -31 -33 -74 7
-47 6 6 1 -17 -6 61 -39
12 33 -75 7 -17 75 -35 -46
9 -19 -8 -58 -40 0 -12 -16
-53 -16 39 -91 -58 -25 112 -52
-20 -46 -19 8 31 -16 32 0
-29 -38 -32 -27 -49 21 12 28
-10 30 34 22 13 -34 -50 17
73 -96 5 -23 -26 12 -39 -54
-53 -27 -10 -46 -7 -54 2 5
18 74 1 -14 69 39 -30 -9
-26 -29 19 -87 19 -13 -37 50
-35 -28 -20 45 0 66 11 -3
-3 -2 -1 -29 8 47 -17 14
13 -16 11 -33 64 6 -45 -2
-6 -1 14 -11 13 9 -70 -9
-2 31 -2 -29 -14 -15 67 82
-27 24 80 31 21 -5 -51 -2
-27 11 -17 -26 -32 -19 11 36
-3 -2 42 8 -37 23 -64 -12
-59 -14 86 -4 -58 -12 7 50
-3 -10 -13 46 -19 30 -34 60
-38 -8 8 -11 32 94 -7 33
00000000: 9062 f22b b940 2218 44d7 09b8 fc20 eaf9
00000010: 4003 e8d0 130d f7f8 faf6 4211 e3fa ed15
00000020: 0df3 e720 02d6 c2f5 e37c d9c8 1cb6 1ff7
00000030: 18e5 28ed 15f9 f210 0fec 1220 2bc2 011a
00000040: db14 3604 e9e3 c6c2 f72d daf4 e1df b607
00000050: d106 0601 effa 3dd9 0c21 b507 ef4b ddd2
00000060: 09ed f8c6 d800 f4f0 cbf0 27a5 c6e7 70cc
00000070: ecd2 ed08 1ff0 2000 e3da e0e5 cf15 0c1c
00000080: f61e 2216 0dde ce11 49a0 05e9 e60c d9ca
00000090: cbe5 f6d2 f9ca 0205 124a 01f2 4527 e2f7
000000a0: e6e3 13a9 13f3 db32 dde4 ec2d 0042 0bfd
000000b0: fdfe ffe3 082f ef0e 0df0 0bdf 4006 d3fe
000000c0: faff 0ef5 0d09 baf7 fe1f fee3 f2f1 4352
000000d0: e518 501f 15fb cdfe e50b efe6 e0ed 0b24
000000e0: fdfe 2a08 db17 c0f4 c5f2 56fc c6f4 0732
000000f0: fdf6 f32e ed1e de3c daf8 08f5 205e f921

tfl.pseudo_qconst9 i1 [1, 3, 3, 336]
127 127 127 83 123 127 -127 -127
-127 118 121 124 127 -94 19 127
127 127 -127 -127 127 87 101 87
-93 127 4 -122 127 112 -120 127
-127 126 127 125 127 -127 127 119
-127 -127 127 90 127 8 127 113
118 114 122 127 117 -118 120 -127
109 127 -127 120 102 117 127 127
-114 -127 127 101 -104 127 127 121
127 125 -86 125 127 127 127 118
-124 124 29 127 67 127 127 127
127 -121 100 127 127 123 76 127
127 -127 98 127 127 127 -127 79
127 126 127 113 -122 -127 36 -102
127 127 127 -127 -114 127 116 127
127 106 -127 -121 -127 -127 127 -108
-123 127 -127 122 125 -126 54 -118
-127 -127 -105 127 127 -121 -78 -127
127 127 -127 124 -127 127 127 127
-126 126 127 -118 127 127 106 127
127 -125 -127 127 -116 127 124 -127
96 97 -126 -127 79 127 127 -119
127 -127 127 127 127 109 -127 127
127 -111 124 -127 127 127 127 127
111 65 127 127 -123 127 124 127
100 -99 116 118 126 -127 -127 70
104 127 -126 124 126 127 127 125
120 127 -97 -118 127 -123 127 127
-121 127 91 109 127 -45 110 125
-127 -94 -127 127 126 126 127 127
127 127 127 124 112 -116 -83 -127
-112 -127 -127 -119 127 -116 -127 124
00000000: 7f7f 7f53 7b7f 8181 8176 797c 7fa2 137f
00000010: 7f7f 8181 7f57 6557 a37f 0486 7f70 887f
00000020: 817e 7f7d 7f81 7f77 8181 7f5a 7f08 7f71
00000030: 7672 7a7f 758a 7881 6d7f 8178 6675 7f7f
00000040: 8e81 7f65 987f 7f79 7f7d aa7d 7f7f 7f76
00000050: 847c 1d7f 437f 7f7f 7f87 647f 7f7b 4c7f
00000060: 7f81 627f 7f7f 814f 7f7e 7f71 8681 249a
00000070: 7f7f 7f81 8e7f 747f 7f6a 8187 8181 7f94
00000080: 857f 817a 7d82 368a 8181 977f 7f87 b281
00000090: 7f7f 817c 817f 7f7f 827e 7f8a 7f7f 6a7f
000000a0: 7f83 817f 8c7f 7c81 6061 8281 4f7f 7f89
000000b0: 7f81 7f7f 7f6d 817f 7f91 7c81 7f7f 7f7f
000000c0: 6f41 7f7f 857f 7c7f 649d 7476 7e81 8146
000000d0: 687f 827c 7e7f 7f7d 787f 9f8a 7f85 7f7f
000000e0: 877f 5b6d 7fd3 6e7d 81a2 817f 7e7e 7f7f
000000f0: 7f7f 7f7c 708c ad81 9081 8189 7f8c 817c

tfl.pseudo_qconst11 i1 [336, 1, 1, 56]
-28 19 -42 -127 90 -25 -91 -3
17 46 18 4 34 13 29 112
34 17 -18 20 -64 -50 -7 49
39 -3 -18 -14 -15 62 -48 16
2 14 -19 -51 22 -15 12 0
14 27 28 -32 -8 -31 -7 -30
-69 -17 5 -16 -47 21 -67 -79
127 -56 -33 -87 9 29 -27 -55
14 -55 -20 21 -69 19 16 -116
10 49 -78 -1 -19 12 17 50
5 -33 -43 -12 37 34 6 23
-102 -11 93 -3 70 -24 -66 38
-40 3 58 -54 25 -4 45 16
1 -77 28 45 9 20 -46 7
62 -77 7 -51 -3 -33 32 8
-3 127 23 37 -58 4 1 -49
-52 -30 -52 -40 -10 -58 30 27
-44 63 -20 -36 -101 8 73 34
64 -46 29 -44 47 -40 -65 39
57 40 39 111 5 9 57 -52
23 -58 41 26 2 38 16 -13
13 -28 -24 -3 -41 22 -22 -68
-47 25 -47 127 -46 46 -9 -21
24 49 121 -6 1 -39 27 -30
57 71 12 -63 8 42 15 -40
35 -37 42 -14 3 -26 -3 57
51 -115 -43 14 -58 50 59 -8
-34 -27 -75 29 -2 -37 -47 55
-2 -18 12 42 -24 -11 29 4
41 -33 9 26 -21 3 -41 -73
-36 -16 -12 -28 4 27 -13 96
-31 16 -70 -19 -15 -2 -16 -9
00000000: e413 d681 5ae7 a5fd 112e 1204 220d 1d70
00000010: 2211 ee14 c0ce f931 27fd eef2 f13e d010
00000020: 020e edcd 16f1 0c00 0e1b 1ce0 f8e1 f9e2
00000030: bbef 05f0 d115 bdb1 7fc8 dfa9 091d e5c9
00000040: 0ec9 ec15 bb13 108c 0a31 b2ff ed0c 1132
00000050: 05df d5f4 2522 0617 9af5 5dfd 46e8 be26
00000060: d803 3aca 19fc 2d10 01b3 1c2d 0914 d207
00000070: 3eb3 07cd fddf 2008 fd7f 1725 c604 01cf
00000080: cce2 ccd8 f6c6 1e1b d43f ecdc 9b08 4922
00000090: 40d2 1dd4 2fd8 bf27 3928 276f 0509 39cc
000000a0: 17c6 291a 0226 10f3 0de4 e8fd d716 eabc
000000b0: d119 d17f d22e f7eb 1831 79fa 01d9 1be2
000000c0: 3947 0cc1 082a 0fd8 23db 2af2 03e6 fd39
000000d0: 338d d50e c632 3bf8 dee5 b51d fedb d137
000000e0: feee 0c2a e8f5 1d04 29df 091a eb03 d7b7
000000f0: dcf0 f4e4 041b f360 e110 baed f1fe f0f7

tfl.pseudo_qconst13 i1 [56, 1, 1, 336]
13 26 -70 16 -18 -34 66 24
37 -1 -62 26 9 14 -7 -10
0 5 0 -33 0 -83 6 -58
125 24 -12 14 -18 17 53 -12
44 -32 -8 -14 -7 6 18 -18
-17 7 39 -12 -6 -15 32 41
-3 5 -68 47 16 17 1 15
84 -3 -15 10 0 -100 25 -42
-42 -42 -5 19 10 19 -34 -8
35 -28 3 -8 -6 2 37 81
-23 -22 -83 12 -57 7 50 -13
17 -56 23 1 16 -44 27 -63
-1 -11 44 93 20 -39 27 0
17 -5 -54 -40 28 -28 -50 8
-40 -64 -25 15 -33 -45 65 -26
8 -47 -83 21 -12 -28 6 -2
-16 -29 -6 -57 55 -28 -50 48
-42 -39 61 -58 23 45 16 10
7 57 -9 17 63 -2 -14 15
22 40 -82 4 -10 -45 40 -60
60 13 5 -6 42 54 -49 64
24 -22 27 21 27 50 -27 -13
8 -16 22 25 21 16 7 71
-122 8 32 84 -23 1 32 45
-12 36 -24 -17 -49 -18 15 -7
-11 -46 -68 46 -46 32 25 -61
17 1 -29 -48 -117 -40 83 15
20 -4 -6 -53 -15 30 -73 48
34 -43 -32 39 -23 -7 38 -38
53 -28 15 47 12 -44 3 13
11 96 -106 14 -34 75 -70 13
77 50 105 56 50 30 -18 -47
00000000: 0d1a ba10 eede 4218 25ff c21a 090e f9f6
00000010: 0005 00df 00ad 06c6 7d18 f40e ee11 35f4
00000020: 2ce0 f8f2 f906 12ee ef07 27f4 faf1 2029
00000030: fd05 bc2f 1011 010f 54fd f10a 009c 19d6
00000040: d6d6 fb13 0a13 def8 23e4 03f8 fa02 2551
00000050: e9ea ad0c c707 32f3 11c8 1701 10d4 1bc1
00000060: fff5 2c5d 14d9 1b00 11fb cad8 1ce4 ce08
00000070: d8c0 e70f dfd3 41e6 08d1 ad15 f4e4 06fe
00000080: f0e3 fac7 37e4 ce30 d6d9 3dc6 172d 100a
00000090: 0739 f711 3ffe f20f 1628 ae04 f6d3 28c4
000000a0: 3c0d 05fa 2a36 cf40 18ea 1b15 1b32 e5f3
000000b0: 08f0 1619 1510 0747 8608 2054 e901 202d
000000c0: f424 e8ef cfee 0ff9 f5d2 bc2e d220 19c3
000000d0: 1101 e3d0 8bd8 530f 14fc facb f11e b730
000000e0: 22d5 e027 e9f9 26da 35e4 0f2f 0cd4 030d
000000f0: 0b60 960e de4b ba0d 4d32 6938 321e eed1

tfl.pseudo_qconst15 i1 [1, 3, 3, 336]
85 25 38 51 16 9 -2 31
42 45 36 -8 127 52 13 -37
16 -39 56 -58 5 -3 42 53
-28 -28 127 -8 -106 60 28 45
5 28 65 17 -39 22 101 -21
17 7 42 -47 -117 69 88 19
20 -31 5 -119 -49 -11 -1 33
15 -18 -15 18 -38 65 41 -3
7 111 29 9 -16 65 -12 -29
29 0 -14 115 120 -3 32 22
57 10 -70 -119 45 6 50 -3
-55 24 92 89 25 28 98 12
22 30 -73 1 127 -8 53 -2
-39 -104 -11 -26 27 23 -8 -30
-112 7 -53 15 111 8 -50 51
87 53 -7 -34 -115 11 12 0
43 -6 -50 127 -26 45 127 -44
3 56 -127 -37 7 127 5 46
-114 -7 -71 -12 17 -8 -92 75
28 6 19 -127 36 3 10 9
6 -6 127 48 64 59 -103 -25
-2 -8 39 55 83 69 -57 66
8 -38 77 2 -13 -45 34 -31
10 -26 17 -4 -21 70 -5 -5
-21 -73 73 119 -84 49 42 -4
56 -26 23 -31 40 29 61 5
-36 43 17 29 18 -97 29 -95
-61 -66 60 27 0 -127 34 1
-11 -13 22 -19 17 17 18 49
40 -114 57 23 -50 -10 9 7
-7 43 47 70 23 -5 52 -91
-59 19 -127 3 57 -100 -2 -61
00000000: 5519 2633 1009 fe1f 2a2d 24f8 7f34 0ddb
00000010: 10d9 38c6 05fd 2a35 e4e4 7ff8 963c 1c2d
00000020: 051c 4111 d916 65eb 1107 2ad1 8b45 5813
00000030: 14e1 0589 cff5 ff21 0fee f112 da41 29fd
00000040: 076f 1d09 f041 f4e3 1d00 f273 78fd 2016
00000050: 390a ba89 2d06 32fd c918 5c59 191c 620c
00000060: 161e b701 7ff8 35fe d998 f5e6 1b17 f8e2
00000070: 9007 cb0f 6f08 ce33 5735 f9de 8d0b 0c00
00000080: 2bfa ce7f e62d 7fd4 0338 81db 077f 052e
00000090: 8ef9 b9f4 11f8 a44b 1c06 1381 2403 0a09
000000a0: 06fa 7f30 403b 99e7 fef8 2737 5345 c742
000000b0: 08da 4d02 f3d3 22e1 0ae6 11fc eb46 fbfb
000000c0: ebb7 4977 ac31 2afc 38e6 17e1 281d 3d05
000000d0: dc2b 111d 129f 1da1 c3be 3c1b 0081 2201
000000e0: f5f3 16ed 1111 1231 288e 3917 cef6 0907
000000f0: f92b 2f46 17fb 34a5 c513 8103 399c fec3

tfl.pseudo_qconst17 i1 [336, 1, 1, 56]
-41 23 8 4 -21 33 -27 -93
-91 23 43 -71 5 127 -25 -38
10 72 76 -22 -72 -81 -9 17
-25 66 54 -103 -43 -63 -55 -71
16 23 -16 18 -18 21 -106 39
-5 13 -35 -60 -79 -38 115 39
8 79 -49 106 85 -80 -80 15
-5 -84 65 17 11 -17 45 16
72 31 -43 -4 17 -50 -49 43
18 37 -15 3 -57 -4 -78 29
2 34 68 -49 -11 111 -29 27
38 9 47 59 -44 -83 -39 -59
-64 -11 9 -81 68 58 -92 3
24 -127 48 -36 -22 -49 -31 -76
44 -84 -18 36 -3 80 -50 -31
-20 -2 -33 -11 32 -15 2 -56
-56 -23 15 -4 -10 77 2 -48
20 -41 32 6 -18 -15 -2 3
-7 -90 42 -65 -57 -21 29 59
-18 -20 127 78 14 51 -44 -30
9 80 -10 45 -42 35 -12 -5
-52 -38 -21 49 -82 -93 -127 8
28 -10 -27 -8 13 -50 -36 30
64 33 -13 -73 23 62 -50 6
50 54 36 -89 45 31 -38 29
2 -16 32 48 -22 -35 -9 46
-48 34 -19 -38 14 -12 42 -48
17 -81 -19 53 -27 7 -67 -40
17 -57 -13 -13 15 -4 26 -35
-53 11 32 -29 1 48 37 -9
-8 29 5 -33 27 7 -14 -22
-6 -15 26 84 -41 -34 67 26
00000000: d717 0804 eb21 e5a3 a517 2bb9 057f e7da
00000010: 0a48 4cea b8af f711 e742 3699 d5c1 c9b9
00000020: 1017 f012 ee15 9627 fb0d ddc4 b1da 7327
00000030: 084f cf6a 55b0 b00f fbac 4111 0bef 2d10
00000040: 481f d5fc 11ce cf2b 1225 f103 c7fc b21d
00000050: 0222 44cf f56f e31b 2609 2f3b d4ad d9c5
00000060: c0f5 09af 443a a403 1881 30dc eacf e1b4
00000070: 2cac ee24 fd50 cee1 ecfe dff5 20f1 02c8
00000080: c8e9 0ffc f64d 02d0 14d7 2006 eef1 fe03
00000090: f9a6 2abf c7eb 1d3b eeec 7f4e 0e33 d4e2
000000a0: 0950 f62d d623 f4fb ccda eb31 aea3 8108
000000b0: 1cf6 e5f8 0dce dc1e 4021 f3b7 173e ce06
000000c0: 3236 24a7 2d1f da1d 02f0 2030 eadd f72e
000000d0: d022 edda 0ef4 2ad0 11af ed35 e507 bdd8
000000e0: 11c7 f3f3 0ffc 1add cb0b 20e3 0130 25f7
000000f0: f81d 05df 1b07 f2ea faf1 1a54 d7de 431a

tfl.pseudo_qconst19 i1 [56, 1, 1, 336]
-46 50 51 32 17 -18 43 -25
37 -6 16 97 -26 98 28 16
76 -29 -36 19 49 -82 9 22
-29 -18 7 11 51 11 30 2
-36 -29 -43 -14 -15 14 -46 0
-2 -10 41 51 50 6 -39 87
17 -37 12 7 35 19 -75 25
39 13 56 31 -37 41 35 -12
-2 18 -14 80 19 -14 -28 -8
79 10 -11 17 0 -46 22 2
73 11 -29 -57 1 -10 23 46
38 -5 -5 31 18 -44 10 6
15 2 -3 60 -35 -26 -16 73
19 22 -29 37 -8 -68 6 -28
8 -9 44 53 -30 -77 18 -63
33 -79 36 36 -2 -13 -87 -33
-45 0 -15 21 -49 -78 -15 -55
-10 -5 -7 100 13 17 -114 -50
-81 -23 -3 -19 -10 54 28 40
57 21 -25 70 61 -49 -26 -69
54 69 37 -97 -13 -37 8 5
77 3 1 -24 50 -19 -18 -11
-15 -69 0 -3 17 30 6 3
3 -19 4 21 -36 -25 -74 -53
6 -52 38 48 -22 7 42 -23
28 -50 -14 38 -60 -1 -5 31
-18 -11 12 -4 52 22 -52 28
20 -106 -16 -26 -13 -8 8 12
12 17 2 42 -32 23 -29 39
-15 -14 0 -22 -40 21 -76 -3
23 22 12 -2 -14 -35 -82 -15
-26 -101 6 29 -13 -2 -9 40
00000000: d232 3320 11ee 2be7 25fa 1061 e662 1c10
00000010: 4ce3 dc13 31ae 0916 e3ee 070b 330b 1e02
00000020: dce3 d5f2 f10e d200 fef6 2933 3206 d957
00000030: 11db 0c07 2313 b519 270d 381f db29 23f4
00000040: fe12 f250 13f2 e4f8 4f0a f511 00d2 1602
00000050: 490b e3c7 01f6 172e 26fb fb1f 12d4 0a06
00000060: 0f02 fd3c dde6 f049 1316 e325 f8bc 06e4
00000070: 08f7 2c35 e2b3 12c1 21b1 2424 fef3 a9df
00000080: d300 f115 cfb2 f1c9 f6fb f964 0d11 8ece
00000090: afe9 fded f636 1c28 3915 e746 3dcf e6bb
000000a0: 3645 259f f3db 0805 4d03 01e8 32ed eef5
000000b0: f1bb 00fd 111e 0603 03ed 0415 dce7 b6cb
000000c0: 06cc 2630 ea07 2ae9 1cce f226 c4ff fb1f
000000d0: eef5 0cfc 3416 cc1c 1496 f0e6 f3f8 080c
000000e0: 0c11 022a e017 e327 f1f2 00ea d815 b4fd
000000f0: 1716 0cfe f2dd aef1 e69b 061d f3fe f728

tfl.pseudo_qconst21 i1 [1, 3, 3, 336]
-21 -12 62 -47 56 63 48 8
-93 -31 -29 44 -17 2 -12 50
-108 -79 -59 55 -80 55 -53 -38
-21 9 62 72 -34 -120 50 24
-33 -5 -127 29 0 22 -37 18
-1 74 7 -7 28 -42 11 19
77 -28 -91 44 -21 -11 13 127
-21 -127 8 23 48 -25 -114 36
31 32 -14 51 118 -9 30 -81
45 1 49 -30 62 11 -43 -23
54 39 41 2 -45 -75 -32 -59
63 -69 50 4 39 57 71 39
-27 111 -89 -29 -17 -27 16 46
39 28 -19 -54 69 31 30 52
45 -57 -65 -127 33 -23 -70 32
-44 66 -63 -120 45 -7 -64 45
-9 -77 -13 1 -46 -37 -32 -111
17 -16 -67 62 17 -1 65 -9
5 93 127 -51 40 17 -94 -15
29 110 -45 27 -3 47 -14 -127
59 -56 -61 -127 -1 62 43 7
29 30 -73 59 15 32 0 82
-34 32 -12 -77 88 32 -30 -28
43 -19 41 -33 49 55 -110 -2
64 18 45 -120 34 31 65 -42
-34 26 64 -46 -12 -43 -13 -15
-21 4 -127 -2 -115 -41 38 -81
-57 -37 66 24 -20 -6 44 -10
30 37 123 44 -117 -4 10 54
-12 63 -65 -2 -34 127 44 59
-24 76 -96 -34 78 46 17 40
26 -3 64 34 -74 -59 72 86
00000000: ebf4 3ed1 383f 3008 a3e1 e32c ef02 f432
00000010: 94b1 c537 b037 cbda eb09 3e48 de88 3218
00000020: dffb 811d 0016 db12 ff4a 07f9 1cd6 0b13
00000030: 4de4 a52c ebf5 0d7f eb81 0817 30e7 8e24
00000040: 1f20 f233 76f7 1eaf 2d01 31e2 3e0b d5e9
00000050: 3627 2902 d3b5 e0c5 3fbb 3204 2739 4727
00000060: e56f a7e3 efe5 102e 271c edca 451f 1e34
00000070: 2dc7 bf81 21e9 ba20 d442 c188 2df9 c02d
00000080: f7b3 f301 d2db e091 11f0 bd3e 11ff 41f7
00000090: 055d 7fcd 2811 a2f1 1d6e d31b fd2f f281
000000a0: 3bc8 c381 ff3e 2b07 1d1e b73b 0f20 0052
000000b0: de20 f4b3 5820 e2e4 2bed 29df 3137 92fe
000000c0: 4012 2d88 221f 41d6 de1a 40d2 f4d5 f3f1
000000d0: eb04 81fe 8dd7 26af c7db 4218 ecfa 2cf6
000000e0: 1e25 7b2c 8bfc 0a36 f43f bffe de7f 2c3b
000000f0: e84c a0de 4e2e 1128 1afd 4022 b6c5 4856

tfl.pseudo_qconst23 i1 [336, 1, 1, 56]
16 81 -61 1 74 25 54 -89
12 42 -42 95 113 42 -114 -101
27 55 18 58 -53 65 16 -74
-85 48 56 -23 36 81 6 7
-2 1 -67 -48 125 71 -33 93
-100 -66 -102 64 -30 23 127 14
100 -80 43 -74 -92 -99 -65 -2
27 52 -72 -17 12 19 34 -14
21 8 67 34 26 -22 18 -32
58 31 -35 113 -32 -1 -69 -14
11 -44 7 71 -29 12 -84 29
4 41 -5 28 -35 21 14 -127
14 -76 12 -73 85 1 -6 36
26 72 -16 -21 -42 39 38 20
1 -2 28 -83 -51 -65 26 -91
40 54 -108 56 17 8 -3 -48
17 -5 -40 19 -14 -46 3 -72
-94 -76 38 -68 60 27 44 65
-1 13 -2 67 57 123 -5 63
-79 10 -14 16 -24 -92 32 33
-55 -1 -21 -70 -127 -121 21 -27
-38 -19 -14 -41 -63 -71 48 -18
7 48 23 -16 8 42 -12 1
9 -23 -2 -9 25 -5 -38 -36
28 10 43 -4 48 56 -53 -25
32 74 -24 22 -20 -93 6 -47
-18 127 -11 82 -54 24 62 5
-14 -10 -6 9 -22 -7 18 57
-25 -17 60 5 -39 3 46 37
44 38 45 -82 2 -47 127 26
52 21 1 18 -23 -94 -30 47
45 8 39 38 -43 5 22 -62
00000000: 1051 c301 4a19 36a7 0c2a d65f 712a 8e9b
00000010: 1b37 123a cb41 10b6 ab30 38e9 2451 0607
00000020: fe01 bdd0 7d47 df5d 9cbe 9a40 e217 7f0e
00000030: 64b0 2bb6 a49d bffe 1b34 b8ef 0c13 22f2
00000040: 1508 4322 1aea 12e0 3a1f dd71 e0ff bbf2
00000050: 0bd4 0747 e30c ac1d 0429 fb1c dd15 0e81
00000060: 0eb4 0cb7 5501 fa24 1a48 f0eb d627 2614
00000070: 01fe 1cad cdbf 1aa5 2836 9438 1108 fdd0
00000080: 11fb d813 f2d2 03b8 a2b4 26bc 3c1b 2c41
00000090: ff0d fe43 397b fb3f b10a f210 e8a4 2021
000000a0: c9ff ebba 8187 15e5 daed f2d7 c1b9 30ee
000000b0: 0730 17f0 082a f401 09e9 fef7 19fb dadc
000000c0: 1c0a 2bfc 3038 cbe7 204a e816 eca3 06d1
000000d0: ee7f f552 ca18 3e05 f2f6 fa09 eaf9 1239
000000e0: e7ef 3c05 d903 2e25 2c26 2dae 02d1 7f1a
000000f0: 3415 0112 e9a2 e22f 2d08 2726 d505 16c2

tfl.pseudo_qconst25 i1 [56, 1, 1, 192]
-23 64 11 -1 -33 20 1 -10
20 -15 -4 -9 -43 16 -66 -95
-78 2 45 17 32 -63 -22 49
-5 11 -35 19 30 -62 -29 -31
22 33 -68 -61 24 -12 14 24
40 -12 3 29 53 -76 -2 31
-17 -6 -35 -21 32 -40 -33 51
7 -20 -19 -11 60 53 16 12
-8 26 -13 -23 -16 -49 1 4
-48 -52 -14 16 -42 2 9 -50
32 -55 10 32 44 1 0 24
-22 20 109 4 63 -11 21 -59
11 53 -57 -23 -6 16 20 -7
-1 50 -5 35 -7 31 2 -45
37 -10 23 -19 -14 -6 -66 -1
-22 -5 34 32 41 2 -26 5
-68 4 27 -1 87 79 55 2
31 -6 24 34 29 -12 -15 91
-7 -12 21 72 -27 -11 41 -33
-53 13 -53 -7 34 -13 0 -21
-56 12 8 -21 -27 -18 -27 -35
5 27 88 18 -1 -74 -44 -33
50 -3 -68 29 50 -56 -127 18
-49 -32 -85 -26 -32 55 -13 -35
27 -22 -1 10 -12 -15 29 19
-1 16 110 -42 7 -39 -90 -19
40 -40 58 13 48 63 -10 43
-41 96 54 14 10 14 -51 8
32 -43 24 -59 -13 -38 5 -51
34 7 -6 -5 -8 50 -55 -66
4 -20 -11 -26 0 -127 -58 73
-41 -35 -23 -16 25 -93 16 87
00000000: e940 0bff df14 01f6 14f1 fcf7 d510 bea1
00000010: b202 2d11 20c1 ea31 fb0b dd13 1ec2 e3e1
00000020: 1621 bcc3 18f4 0e18 28f4 031d 35b4 fe1f
00000030: effa ddeb 20d8 df33 07ec edf5 3c35 100c
00000040: f81a f3e9 f0cf 0104 d0cc f210 d602 09ce
00000050: 20c9 0a20 2c01 0018 ea14 6d04 3ff5 15c5
00000060: 0b35 c7e9 fa10 14f9 ff32 fb23 f91f 02d3
00000070: 25f6 17ed f2fa beff eafb 2220 2902 e605
00000080: bc04 1bff 574f 3702 1ffa 1822 1df4 f15b
00000090: f9f4 1548 e5f5 29df cb0d cbf9 22f3 00eb
000000a0: c80c 08eb e5ee e5dd 051b 5812 ffb6 d4df
000000b0: 32fd bc1d 32c8 8112 cfe0 abe6 e037 f3dd
000000c0: 1bea ff0a f4f1 1d13 ff10 6ed6 07d9 a6ed
000000d0: 28d8 3a0d 303f f62b d760 360e 0a0e cd08
000000e0: 20d5 18c5 f3da 05cd 2207 fafb f832 c9be
000000f0: 04ec f5e6 0081 c649 d7dd e9f0 19a3 1057

tfl.pseudo_qconst27 i1 [1, 3, 3, 192]
86 52 59 -127 70 65 -61 89
81 71 76 67 -93 63 70 -63
-65 19 66 67 -68 -75 68 67
-66 53 58 -77 110 -82 -62 -84
-106 -47 64 77 -95 -69 64 -50
63 -65 74 -94 72 -62 55 70
68 59 -68 -67 55 -65 83 -73
26 78 71 -95 -61 -61 54 59
67 49 -56 66 -68 -68 -53 70
87 -94 76 35 66 -79 -90 -76
55 74 -56 -92 -84 -63 64 -70
55 70 -57 68 67 63 -55 60
-108 56 103 69 71 63 -54 -74
71 -71 -78 -59 68 73 64 -58
67 -54 55 60 -65 58 34 53
68 -97 78 78 -60 -92 83 -122
-53 -117 -58 75 -65 -51 83 67
52 57 49 58 70 70 -107 -77
77 -65 71 63 53 69 70 88
68 -109 73 -56 71 66 -49 79
48 106 71 75 -91 63 -72 50
61 56 77 -60 55 -79 63 60
72 85 69 79 -75 63 85 -88
-69 61 -57 60 63 64 73 39
108 81 83 44 86 90 -71 106
95 93 99 89 -91 86 95 -86
-90 16 92 94 -92 -91 83 93
-89 73 85 -117 116 -111 -92 -112
-127 -64 83 96 -116 -97 96 -77
90 -88 93 -116 100 -83 81 91
93 83 -88 -93 70 -92 104 -94
40 96 99 22 -83 -81 83 83
00000000: 5634 3b81 4641 c359 5147 4c43 a33f 46c1
00000010: bf13 4243 bcb5 4443 be35 3ab3 6eae c2ac
00000020: 96d1 404d a1bb 40ce 3fbf 4aa2 48c2 3746
00000030: 443b bcbd 37bf 53b7 1a4e 47a1 c3c3 363b
00000040: 4331 c842 bcbc cb46 57a2 4c23 42b1 a6b4
00000050: 374a c8a4 acc1 40ba 3746 c744 433f c93c
00000060: 9438 6745 473f cab6 47b9 b2c5 4449 40c6
00000070: 43ca 373c bf3a 2235 449f 4e4e c4a4 5386
00000080: cb8b c64b bfcd 5343 3439 313a 4646 95b3
00000090: 4dbf 473f 3545 4658 4493 49c8 4742 cf4f
000000a0: 306a 474b a53f b832 3d38 4dc4 37b1 3f3c
000000b0: 4855 454f b53f 55a8 bb3d c73c 3f40 4927
000000c0: 6c51 532c 565a b96a 5f5d 6359 a556 5faa
000000d0: a610 5c5e a4a5 535d a749 558b 7491 a490
000000e0: 81c0 5360 8c9f 60b3 5aa8 5d8c 64ad 515b
000000f0: 5d53 a8a3 46a4 68a2 2860 6316 adaf 5353

tfl.pseudo_qconst29 i1 [192, 1, 1, 32]
-21 -7 27 -10 -115 -5 12 -21
-12 117 -56 15 127 41 59 -70
-114 64 15 2 11 -72 84 -7
-72 -53 34 -120 -6 57 8 -5
72 26 66 12 41 43 33 41
-28 49 23 55 22 45 25 37
-20 -53 -57 16 63 91 -7 8
-52 -127 -2 80 27 46 9 47
107 91 8 127 -37 -56 -7 49
-69 37 45 60 51 12 -1 40
-27 -108 -41 32 3 -99 35 -88
23 2 -49 61 -8 -2 -88 -115
13 -17 -13 -47 15 -4 -27 -56
9 -79 28 -79 127 33 78 71
-27 -12 -64 -7 52 -29 67 15
-10 -8 83 22 -31 -34 -53 49
127 -30 50 -16 -4 -66 45 -63
4 34 -24 44 10 -56 27 -40
-5 -29 31 35 22 23 -68 40
20 -71 36 -14 48 -10 -29 76
-20 32 6 -25 28 127 -61 40
41 -1 13 -42 10 50 33 -17
-5 -44 -32 35 -15 -13 -3 20
-29 33 -18 -8 57 55 -47 -46
-17 -30 61 2 -71 8 -8 3
-19 -20 17 27 -9 27 -57 3
-61 38 -20 43 3 37 -72 50
12 78 -127 -46 -21 35 -52 -34
-10 -27 45 127 17 23 -95 -13
-46 -6 -54 18 -8 -6 -44 -24
-10 -2 13 27 7 -12 -32 -89
-30 -2 -13 -23 -43 -1 -68 -13
00000000: ebf9 1bf6 8dfb 0ceb f475 c80f 7f29 3bba
00000010: 8e40 0f02 0bb8 54f9 b8cb 2288 fa39 08fb
00000020: 481a 420c 292b 2129 e431 1737 162d 1925
00000030: eccb c710 3f5b f908 cc81 fe50 1b2e 092f
00000040: 6b5b 087f dbc8 f931 bb25 2d3c 330c ff28
00000050: e594 d720 039d 23a8 1702 cf3d f8fe a88d
00000060: 0def f3d1 0ffc e5c8 09b1 1cb1 7f21 4e47
00000070: e5f4 c0f9 34e3 430f f6f8 5316 e1de cb31
00000080: 7fe2 32f0 fcbe 2dc1 0422 e82c 0ac8 1bd8
00000090: fbe3 1f23 1617 bc28 14b9 24f2 30f6 e34c
000000a0: ec20 06e7 1c7f c328 29ff 0dd6 0a32 21ef
000000b0: fbd4 e023 f1f3 fd14 e321 eef8 3937 d1d2
000000c0: efe2 3d02 b908 f803 edec 111b f71b c703
000000d0: c326 ec2b 0325 b832 0c4e 81d2 eb23 ccde
000000e0: f6e5 2d7f 1117 a1f3 d2fa ca12 f8fa d4e8
000000f0: f6fe 0d1b 07f4 e0a7 e2fe f3e9 d5ff bcf3

tfl.pseudo_qconst31 i1 [32, 1, 1, 192]
35 -76 -54 2 -19 6 -27 -46
0 -21 -13 -27 -39 33 -37 -12
-25 4 -9 29 -4 -3 -49 3
-44 8 -119 -36 -71 -93 9 67
-57 -22 4 17 59 13 -115 -33
15 54 -31 52 -13 25 85 -99
23 -73 -6 -23 44 -8 -30 -20
-54 8 -12 -52 -31 38 -10 4
-49 2 -50 4 12 -11 -33 -18
14 1 7 42 66 -54 -26 12
-16 -1 -11 10 37 -54 3 -5
-15 -26 -5 -36 15 -50 28 -58
72 32 72 -21 -41 45 -79 50
13 -55 -40 -8 -18 42 0 -24
-22 -93 60 -8 39 29 -29 -26
-1 47 -62 -127 -26 -78 -54 10
-101 -28 5 -4 -25 28 -27 -34
-28 30 -16 -1 109 86 -58 75
-19 48 23 -52 -47 16 -41 20
37 21 13 13 -5 45 6 39
-47 -11 -16 10 -11 -6 -1 53
8 -5 -16 -31 -15 -6 33 0
-15 4 0 -22 52 31 60 34
50 46 24 -1 -13 18 -78 25
-7 1 -15 17 12 -16 0 7
-13 -39 26 -75 -14 3 -5 3
-55 -14 -15 19 -7 -29 100 -32
32 12 -21 57 2 -5 28 16
-36 30 18 14 -13 11 -26 -38
9 0 21 -16 45 -20 28 -11
-4 6 -2 71 -51 -12 -56 26
9 42 -4 9 -15 -22 -64 24
00000000: 23b4 ca02 ed06 e5d2 00eb f3e5 d921 dbf4
00000010: e704 f71d fcfd cf03 d408 89dc b9a3 0943
00000020: c7ea 0411 3b0d 8ddf 0f36 e134 f319 559d
00000030: 17b7 fae9 2cf8 e2ec ca08 f4cc e126 f604
00000040: cf02 ce04 0cf5 dfee 0e01 072a 42ca e60c
00000050: f0ff f50a 25ca 03fb f1e6 fbdc 0fce 1cc6
00000060: 4820 48eb d72d b132 0dc9 d8f8 ee2a 00e8
00000070: eaa3 3cf8 271d e3e6 ff2f c281 e6b2 ca0a
00000080: 9be4 05fc e71c e5de e41e f0ff 6d56 c64b
00000090: ed30 17cc d110 d714 2515 0d0d fb2d 0627
000000a0: d1f5 f00a f5fa ff35 08fb f0e1 f1fa 2100
000000b0: f104 00ea 341f 3c22 322e 18ff f312 b219
000000c0: f901 f111 0cf0 0007 f3d9 1ab5 f203 fb03
000000d0: c9f2 f113 f9e3 64e0 200c eb39 02fb 1c10
000000e0: dc1e 120e f30b e6da 0900 15f0 2dec 1cf5
000000f0: fc06 fe47 cdf4 c81a 092a fc09 f1ea c018

tfl.pseudo_qconst33 i1 [1, 3, 3, 192]
5 -16 0 -103 48 23 2 36
105 11 4 21 44 71 -2 -26
51 -17 44 -1 54 -126 23 6
-32 -13 41 -16 46 -18 66 22
0 -23 -2 9 20 -104 -40 49
20 7 5 105 -40 -20 -32 -9
88 3 14 -78 -67 15 19 -126
23 18 26 17 64 -12 -22 26
-16 84 2 -15 31 -95 89 -18
127 9 56 48 20 29 13 -51
-22 25 -25 104 -1 -54 -28 -13
49 -127 27 22 -34 -10 -38 50
22 32 51 -24 -19 81 33 -68
-7 73 11 -5 17 -58 8 107
-115 -79 41 -45 14 17 -127 -45
-3 25 -35 21 24 -18 -3 32
58 -124 50 11 96 24 51 54
-63 -51 -83 -82 -12 23 35 -64
3 26 -9 73 -19 -15 91 10
-127 63 -98 53 -5 23 -61 28
-48 48 -24 -46 4 -80 23 37
58 61 -37 -27 -45 -30 16 -26
-32 -45 11 -1 5 22 60 -112
13 -77 26 39 3 -20 -20 -64
-38 127 103 -127 -27 3 -45 48
53 127 -3 42 127 127 -127 -78
113 -18 115 127 51 -28 39 28
39 -71 127 127 40 72 -28 127
-20 56 -23 36 -2 -109 -78 82
35 -18 2 -2 -58 127 -42 13
-23 -26 127 -61 -127 76 55 77
48 117 -87 0 95 -54 -27 83
00000000: 05f0 0099 3017 0224 690b 0415 2c47 fee6
00000010: 33ef 2cff 3682 1706 e0f3 29f0 2eee 4216
00000020: 00e9 fe09 1498 d831 1407 0569 d8ec e0f7
00000030: 5803 0eb2 bd0f 1382 1712 1a11 40f4 ea1a
00000040: f054 02f1 1fa1 59ee 7f09 3830 141d 0dcd
00000050: ea19 e768 ffca e4f3 3181 1b16 def6 da32
00000060: 1620 33e8 ed51 21bc f949 0bfb 11c6 086b
00000070: 8db1 29d3 0e11 81d3 fd19 dd15 18ee fd20
00000080: 3a84 320b 6018 3336 c1cd adae f417 23c0
00000090: 031a f749 edf1 5b0a 813f 9e35 fb17 c31c
000000a0: d030 e8d2 04b0 1725 3a3d dbe5 d3e2 10e6
000000b0: e0d3 0bff 0516 3c90 0db3 1a27 03ec ecc0
000000c0: da7f 6781 e503 d330 357f fd2a 7f7f 81b2
000000d0: 71ee 737f 33e4 271c 27b9 7f7f 2848 e47f
000000e0: ec38 e924 fe93 b252 23ee 02fe c67f d60d
000000f0: e9e6 7fc3 814c 374d 3075 a900 5fca e553

tfl.pseudo_qconst35 i1 [192, 1, 1, 32]
9 4 109 2 -73 -27 0 42
73 34 -17 -28 3 -1 30 -21
80 -25 41 22 105 43 -6 -21
-19 20 32 -127 -24 22 -1 -42
51 8 46 -87 -77 -59 73 8
88 0 39 -88 104 66 42 -73
14 -20 5 6 72 127 35 -17
-31 -26 -17 -97 -31 10 35 -16
83 49 22 -76 120 67 -41 71
-127 36 64 58 14 0 50 -15
87 65 44 -9 83 110 9 -73
-80 -10 47 -94 -85 -11 -1 -13
25 -18 41 -31 43 -26 -17 77
72 -124 10 88 -71 -1 -65 14
-60 47 71 -127 -54 78 -25 -32
-18 60 -90 -86 9 1 -13 -61
10 13 -12 13 38 10 -7 -54
-51 16 -3 -17 39 20 11 19
3 -4 -19 -11 127 -17 -23 2
14 10 63 90 3 -15 -39 38
-13 -68 14 6 32 11 85 -6
30 -60 -34 -43 65 66 -23 113
-40 91 73 33 24 -26 10 32
6 121 58 -26 -55 -30 -127 2
-13 -65 -96 17 -127 -24 21 9
-14 57 -23 -49 78 64 62 -1
-120 76 18 56 38 -61 39 -21
-116 126 -56 -67 5 43 -7 41
-56 24 17 41 127 -30 -13 -9
49 22 -24 27 -18 -6 -44 16
-79 23 18 -15 16 25 -43 -24
102 20 -13 -40 -14 4 12 -22
00000000: 0904 6d02 b7e5 002a 4922 efe4 03ff 1eeb
00000010: 50e7 2916 692b faeb ed14 2081 e816 ffd6
00000020: 3308 2ea9 b3c5 4908 5800 27a8 6842 2ab7
00000030: 0eec 0506 487f 23ef e1e6 ef9f e10a 23f0
00000040: 5331 16b4 7843 d747 8124 403a 0e00 32f1
00000050: 5741 2cf7 536e 09b7 b0f6 2fa2 abf5 fff3
00000060: 19ee 29e1 2be6 ef4d 4884 0a58 b9ff bf0e
00000070: c42f 4781 ca4e e7e0 ee3c a6aa 0901 f3c3
00000080: 0a0d f40d 260a f9ca cd10 fdef 2714 0b13
00000090: 03fc edf5 7fef e902 0e0a 3f5a 03f1 d926
000000a0: f3bc 0e06 200b 55fa 1ec4 ded5 4142 e971
000000b0: d85b 4921 18e6 0a20 0679 3ae6 c9e2 8102
000000c0: f3bf a011 81e8 1509 f239 e9cf 4e40 3eff
000000d0: 884c 1238 26c3 27eb 8c7e c8bd 052b f929
000000e0: c818 1129 7fe2 f3f7 3116 e81b eefa d410
000000f0: b117 12f1 1019 d5e8 6614 f3d8 f204 0cea

tfl.pseudo_qconst37 i1 [32, 1, 1, 192]
22 32 -35 14 -1 37 -43 18
-13 21 9 16 -15 25 40 60
52 44 25 -56 32 -20 44 -34
-26 -75 -37 68 4 -43 2 -46
2 -21 20 -13 9 -6 12 78
44 -12 -35 -13 21 -10 7 36
-41 -32 -48 27 -20 54 -28 38
42 -48 -6 -83 -49 -37 -18 26
-52 34 -11 -44 -79 73 -38 77
-14 -31 -10 -16 4 41 55 20
32 127 42 68 -2 -69 73 9
12 -50 44 -75 6 14 57 15
-10 -32 32 10 -10 -8 -10 -11
-28 70 11 7 21 29 -29 20
35 -29 20 6 -78 35 -24 63
-90 20 -3 73 -59 -32 -22 -22
-16 -49 32 10 -56 -8 -32 42
4 53 -12 31 29 78 -10 -31
-74 -15 7 96 -40 -76 -12 2
1 -62 -24 62 14 76 46 8
30 -13 27 3 -41 31 41 46
-8 -24 13 -4 5 -4 76 1
61 -17 -49 44 -15 -19 109 15
-59 -12 31 73 10 34 30 14
-20 -2 -26 40 28 9 -21 -6
22 -66 25 4 49 3 22 -77
-63 9 27 -106 11 -2 -4 32
-51 -51 -40 -8 -44 121 -40 53
29 -5 24 -21 8 55 -5 -1
-13 30 -23 11 -54 -22 -21 -14
33 -22 11 -46 41 23 -3 -99
42 -10 13 47 4 2 -16 13
00000000: 1620 dd0e ff25 d512 f315 0910 f119 283c
00000010: 342c 19c8 20ec 2cde e6b5 db44 04d5 02d2
00000020: 02eb 14f3 09fa 0c4e 2cf4 ddf3 15f6 0724
00000030: d7e0 d01b ec36 e426 2ad0 faad cfdb ee1a
00000040: cc22 f5d4 b149 da4d f2e1 f6f0 0429 3714
00000050: 207f 2a44 febb 4909 0cce 2cb5 060e 390f
00000060: f6e0 200a f6f8 f6f5 e446 0b07 151d e314
00000070: 23e3 1406 b223 e83f a614 fd49 c5e0 eaea
00000080: f0cf 200a c8f8 e02a 0435 f41f 1d4e f6e1
00000090: b6f1 0760 d8b4 f402 01c2 e83e 0e4c 2e08
000000a0: 1ef3 1b03 d71f 292e f8e8 0dfc 05fc 4c01
000000b0: 3def cf2c f1ed 6d0f c5f4 1f49 0a22 1e0e
000000c0: ecfe e628 1c09 ebfa 16be 1904 3103 16b3
000000d0: c109 1b96 0bfe fc20 cdcd d8f8 d479 d835
000000e0: 1dfb 18eb 0837 fbff f31e e90b caea ebf2
000000f0: 21ea 0bd2 2917 fd9d 2af6 0d2f 0402 f00d

tfl.pseudo_qconst39 i1 [1, 3, 3, 192]
22 11 -5 21 -89 8 34 37
-104 65 48 127 67 -79 -24 32
-6 -105 127 -127 -41 4 -6 -25
-77 66 18 12 -36 -35 -61 29
-57 26 40 38 5 17 -50 -8
127 -50 -1 39 -1 -17 24 -7
56 -18 0 2 -82 26 86 46
59 -26 0 66 77 94 100 18
8 -67 -31 30 14 37 -59 -3
50 2 31 31 25 -29 -80 127
46 -37 -101 -112 -127 7 -58 70
-54 6 -18 9 -5 -79 -78 33
80 -80 26 1 -3 7 95 -73
95 50 -13 -4 80 113 9 -83
-9 57 1 5 13 50 -110 24
-44 35 13 -39 0 -5 23 -58
4 -19 9 -42 41 80 71 -64
56 -29 127 -1 -37 26 -44 46
57 -25 -16 51 12 76 -10 -18
-112 -72 -25 -127 -32 -33 -69 -23
-75 -17 -75 46 -4 22 8 -19
57 72 -2 -25 89 -41 -21 -11
22 -80 -67 -1 35 -80 11 -25
20 -7 0 64 -24 -72 76 1
-59 53 -1 -127 -63 127 -31 -32
-127 69 21 -127 127 13 -127 127
127 -105 44 -121 -111 -17 -18 -72
-110 127 127 34 -36 -39 -70 127
127 127 94 34 -55 54 48 -38
-124 -127 4 127 -15 -73 -16 -62
127 -42 -58 127 -13 27 67 10
63 -122 127 102 127 -91 127 -41
00000000: 160b fb15 a708 2225 9841 307f 43b1 e820
00000010: fa97 7f81 d704 fae7 b342 120c dcdd c31d
00000020: c71a 2826 0511 cef8 7fce ff27 ffef 18f9
00000030: 38ee 0002 ae1a 562e 3be6 0042 4d5e 6412
00000040: 08bd e11e 0e25 c5fd 3202 1f1f 19e3 b07f
00000050: 2edb 9b90 8107 c646 ca06 ee09 fbb1 b221
00000060: 50b0 1a01 fd07 5fb7 5f32 f3fc 5071 09ad
00000070: f739 0105 0d32 9218 d423 0dd9 00fb 17c6
00000080: 04ed 09d6 2950 47c0 38e3 7fff db1a d42e
00000090: 39e7 f033 0c4c f6ee 90b8 e781 e0df bbe9
000000a0: b5ef b52e fc16 08ed 3948 fee7 59d7 ebf5
000000b0: 16b0 bdff 23b0 0be7 14f9 0040 e8b8 4c01
000000c0: c535 ff81 c17f e1e0 8145 1581 7f0d 817f
000000d0: 7f97 2c87 91ef eeb8 927f 7f22 dcd9 ba7f
000000e0: 7f7f 5e22 c936 30da 8481 047f f1b7 f0c2
000000f0: 7fd6 c67f f31b 430a 3f86 7f66 7fa5 7fd7

tfl.pseudo_qconst41 i1 [192, 1, 1, 32]
46 30 84 -14 42 -13 -63 -69
-86 -92 65 -11 16 -28 -1 -36
127 -78 -112 17 -27 40 -44 -6
91 -56 -78 59 78 -21 68 71
-15 -3 -28 32 -6 -14 36 36
41 39 -51 -39 9 21 46 32
-84 127 54 -31 38 -30 5 -22
-101 15 90 -32 -48 -7 -33 -53
-21 25 43 -48 10 -49 25 127
81 -54 108 -22 -75 84 20 9
41 71 34 -85 -6 -72 4 98
62 -113 -25 16 28 -13 91 -97
-69 32 -4 -47 -34 -9 16 35
85 -73 -24 127 -92 -60 -31 -40
115 -2 121 3 2 -57 7 41
-21 76 -31 -57 -35 -58 -2 -51
-23 -79 -65 24 -6 51 -30 77
1 54 3 -35 -85 -35 -35 45
50 -32 -6 127 7 -78 3 -30
11 12 32 46 -1 -65 25 19
-72 3 77 61 63 10 -26 34
8 3 6 -85 -36 -97 127 8
-63 -25 -37 -9 -12 -45 47 99
-4 -9 13 27 62 -10 -43 -38
70 -23 -43 -5 -9 -23 -28 -61
-57 -17 11 -22 -13 18 -42 114
-61 54 -40 4 -25 -35 -44 88
43 127 -29 9 -12 -16 -96 39
3 1 -27 31 -4 -7 -49 127
51 10 9 -13 7 -17 14 -31
29 -21 -21 -26 -38 -6 -19 -40
83 -105 -14 2 13 41 86 -16
00000000: 2e1e 54f2 2af3 c1bb aaa4 41f5 10e4 ffdc
00000010: 7fb2 9011 e528 d4fa 5bc8 b23b 4eeb 4447
00000020: f1fd e420 faf2 2424 2927 cdd9 0915 2e20
00000030: ac7f 36e1 26e2 05ea 9b0f 5ae0 d0f9 dfcb
00000040: eb19 2bd0 0acf 197f 51ca 6cea b554 1409
00000050: 2947 22ab fab8 0462 3e8f e710 1cf3 5b9f
00000060: bb20 fcd1 def7 1023 55b7 e87f a4c4 e1d8
00000070: 73fe 7903 02c7 0729 eb4c e1c7 ddc6 fecd
00000080: e9b1 bf18 fa33 e24d 0136 03dd abdd dd2d
00000090: 32e0 fa7f 07b2 03e2 0b0c 202e ffbf 1913
000000a0: b803 4d3d 3f0a e622 0803 06ab dc9f 7f08
000000b0: c1e7 dbf7 f4d3 2f63 fcf7 0d1b 3ef6 d5da
000000c0: 46e9 d5fb f7e9 e4c3 c7ef 0bea f312 d672
000000d0: c336 d804 e7dd d458 2b7f e309 f4f0 a027
000000e0: 0301 e51f fcf9 cf7f 330a 09f3 07ef 0ee1
000000f0: 1deb ebe6 dafa edd8 5397 f202 0d29 56f0

tfl.pseudo_qconst43 i1 [32, 1, 1, 144]
-5 22 48 14 -28 -19 -40 23
-88 18 54 51 -20 8 6 21
-6 -25 -51 -2 -60 -9 -1 -38
5 -58 14 -16 22 14 12 40
-8 -18 8 11 16 -54 -17 7
78 -14 6 -1 36 1 18 -2
28 31 4 7 55 -35 -1 51
-42 -10 68 -2 22 -36 -5 77
45 -7 46 -17 77 46 -2 77
-1 94 12 -6 -40 -23 12 7
-26 -68 42 -3 -38 -55 -12 39
-11 15 16 -10 3 12 40 -7
-10 6 53 12 32 -17 34 -16
23 -34 50 -27 -23 -38 -10 -11
27 -55 9 4 16 11 -127 57
32 -15 -6 1 -31 21 37 -28
5 2 7 -19 17 -17 14 68
-12 11 -18 -43 19 53 -64 14
50 -39 -69 11 -124 1 -95 52
0 -21 -98 51 54 89 3 42
-70 23 -10 14 -28 113 52 17
-27 121 10 9 -30 -29 56 -92
6 46 -26 -36 -8 -3 -52 -3
1 -15 52 63 25 -14 -93 38
-44 22 -54 24 43 35 -38 -71
-12 80 59 18 -95 2 3 -42
8 22 -37 -8 -2 -36 20 72
46 -21 -40 19 -5 47 -4 -16
-3 51 -46 52 -34 -72 26 17
-48 63 -51 -11 2 13 -120 53
-29 -44 15 55 -6 -34 34 18
68 -109 44 -15 -15 -32 -18 12
00000000: fb16 300e e4ed d817 a812 3633 ec08 0615
00000010: fae7 cdfe c4f7 ffda 05c6 0ef0 160e 0c28
00000020: f8ee 080b 10ca ef07 4ef2 06ff 2401 12fe
00000030: 1c1f 0407 37dd ff33 d6f6 44fe 16dc fb4d
00000040: 2df9 2eef 4d2e fe4d ff5e 0cfa d8e9 0c07
00000050: e6bc 2afd dac9 f427 f50f 10f6 030c 28f9
00000060: f606 350c 20ef 22f0 17de 32e5 e9da f6f5
00000070: 1bc9 0904 100b 8139 20f1 fa01 e115 25e4
00000080: 0502 07ed 11ef 0e44 f40b eed5 1335 c00e
00000090: 32d9 bb0b 8401 a134 00eb 9e33 3659 032a
000000a0: ba17 f60e e471 3411 e579 0a09 e2e3 38a4
000000b0: 062e e6dc f8fd ccfd 01f1 343f 19f2 a326
000000c0: d416 ca18 2b23 dab9 f450 3b12 a102 03d6
000000d0: 0816 dbf8 fedc 1448 2eeb d813 fb2f fcf0
000000e0: fd33 d234 deb8 1a11 d03f cdf5 020d 8835
000000f0: e3d4 0f37 fade 2212 4493 2cf1 f1e0 ee0c

tfl.pseudo_qconst45 i1 [1, 3, 3, 144]
-9 -3 -20 -31 10 37 -2 20
45 -30 -9 -8 7 3 1 -5
-60 -7 -36 29 13 -17 -5 -21
7 11 -63 8 -71 -26 42 22
16 27 30 -84 -103 -17 -89 5
-17 -9 -12 12 -17 18 -6 1
-3 -127 -18 -11 -8 35 -21 2
0 -21 3 0 -19 -78 38 39
57 -3 3 -39 11 7 -47 13
-24 -4 0 -69 -127 -50 16 12
-22 -26 5 3 1 0 33 -67
22 -19 39 3 34 14 16 3
-11 -74 -32 -5 -32 3 8 -1
12 13 -13 90 5 8 -21 -53
12 20 -20 -38 -7 -38 31 -6
-35 -7 54 -4 28 -19 2 34
59 9 11 34 -21 22 -32 23
17 -22 -17 -9 3 -5 -127 -63
24 34 12 -62 20 -33 -68 60
127 -23 -44 -11 26 13 26 24
-127 25 11 44 8 -33 6 -11
-55 7 14 -32 6 -106 -53 35
12 118 127 -118 -72 15 1 49
-43 -21 2 -21 -84 -8 20 11
-1 -123 50 22 19 -7 -9 37
-2 -42 19 49 -61 -26 82 66
2 -56 4 -31 6 51 -65 30
19 81 29 -127 -45 -52 66 36
40 1 59 -52 -48 -46 110 27
27 -33 25 63 -97 11 -23 -5
-6 -102 -68 -31 -50 59 22 -1
36 51 -23 48 -3 -116 -86 -4
00000000: f7fd ece1 0a25 fe14 2de2 f7f8 0703 01fb
00000010: c4f9 dc1d 0def fbeb 070b c108 b9e6 2a16
00000020: 101b 1eac 99ef a705 eff7 f40c ef12 fa01
00000030: fd81 eef5 f823 eb02 00eb 0300 edb2 2627
00000040: 39fd 03d9 0b07 d10d e8fc 00bb 81ce 100c
00000050: eae6 0503 0100 21bd 16ed 2703 220e 1003
00000060: f5b6 e0fb e003 08ff 0c0d f35a 0508 ebcb
00000070: 0c14 ecda f9da 1ffa ddf9 36fc 1ced 0222
00000080: 3b09 0b22 eb16 e017 11ea eff7 03fb 81c1
00000090: 1822 0cc2 14df bc3c 7fe9 d4f5 1a0d 1a18
000000a0: 8119 0b2c 08df 06f5 c907 0ee0 0696 cb23
000000b0: 0c76 7f8a b80f 0131 d5eb 02eb acf8 140b
000000c0: ff85 3216 13f9 f725 fed6 1331 c3e6 5242
000000d0: 02c8 04e1 0633 bf1e 1351 1d81 d3cc 4224
000000e0: 2801 3bcc d0d2 6e1b 1bdf 193f 9f0b e9fb
000000f0: fa9a bce1 ce3b 16ff 2433 e930 fd8c aafc

tfl.pseudo_qconst47 i1 [144, 1, 1, 24]
18 35 -5 38 9 24 19 -127
-61 45 48 -21 3 36 -28 19
50 -32 -80 8 28 70 -40 55
53 -28 127 11 -3 16 -9 14
-30 7 14 -4 43 12 -7 23
18 -31 -61 -29 -24 22 -11 11
118 127 29 11 -82 22 75 -37
-10 -71 -57 8 -126 -100 -26 -8
31 -29 -13 -43 -50 -105 28 39
49 -4 -26 6 32 -127 29 54
48 48 83 43 105 -95 31 45
58 29 -13 -3 -29 78 -28 75
20 30 5 -104 -39 -11 -9 10
27 46 127 6 8 16 56 -1
-39 85 -51 -103 -70 -3 -5 -37
44 -23 -5 -46 -92 33 112 -7
32 40 55 -22 -127 -14 -72 -79
-92 -125 18 66 -33 -3 -18 -44
-127 24 116 -19 43 -13 -9 -3
90 -1 -22 -11 14 -16 37 -16
-15 25 -48 45 23 -1 -4 6
10 -9 -11 7 -1 10 -36 11
5 -19 25 55 4 9 -48 -127
73 63 -7 16 -25 -17 -43 15
59 -47 18 49 69 -20 -7 9
-94 -16 24 10 -43 0 66 -9
43 61 -127 -82 -33 51 82 81
15 -36 0 -36 -39 -25 22 -13
20 15 -6 -38 15 0 -13 -26
18 -7 -7 53 -14 27 127 10
-1 1 -8 18 -102 -4 -45 -4
-9 13 6 -13 17 12 26 -20
00000000: 1223 fb26 0918 1381 c32d 30eb 0324 e413
00000010: 32e0 b008 1c46 d837 35e4 7f0b fd10 f70e
00000020: e207 0efc 2b0c f917 12e1 c3e3 e816 f50b
00000030: 767f 1d0b ae16 4bdb f6b9 c708 829c e6f8
00000040: 1fe3 f3d5 ce97 1c27 31fc e606 2081 1d36
00000050: 3030 532b 69a1 1f2d 3a1d f3fd e34e e44b
00000060: 141e 0598 d9f5 f70a 1b2e 7f06 0810 38ff
00000070: d955 cd99 bafd fbdb 2ce9 fbd2 a421 70f9
00000080: 2028 37ea 81f2 b8b1 a483 1242 dffd eed4
00000090: 8118 74ed 2bf3 f7fd 5aff eaf5 0ef0 25f0
000000a0: f119 d02d 17ff fc06 0af7 f507 ff0a dc0b
000000b0: 05ed 1937 0409 d081 493f f910 e7ef d50f
000000c0: 3bd1 1231 45ec f909 a2f0 180a d500 42f7
000000d0: 2b3d 81ae df33 5251 0fdc 00dc d9e7 16f3
000000e0: 140f fada 0f00 f3e6 12f9 f935 f21b 7f0a
000000f0: ff01 f812 9afc d3fc f70d 06f3 110c 1aec

tfl.pseudo_qconst49 i1 [24, 1, 1, 144]
39 -20 5 -1 -11 10 7 -30
-43 39 6 -1 10 -25 45 6
-12 17 61 18 19 2 -6 5
-17 49 8 -51 -20 1 -39 8
24 -3 -10 -28 32 -5 50 38
-20 -12 -49 -24 -4 -20 -1 -2
13 12 -12 -25 -21 -4 -11 25
-12 -18 2 -21 9 32 -36 -19
44 36 -6 -21 22 -31 69 1
-21 28 -7 -10 55 2 -10 -28
7 18 -18 17 21 -2 -2 -80
17 -4 -8 3 -4 4 66 3
40 9 -14 12 9 1 -10 16
0 4 -6 2 45 32 -3 1
9 -127 24 -49 34 -4 13 -3
41 -11 -9 76 14 23 -43 17
6 25 4 29 5 42 38 13
1 3 -15 -13 -55 23 18 -4
-30 74 -9 -21 -59 19 21 -43
-40 -74 -52 -21 4 -68 71 23
-103 34 39 32 -3 -8 -52 12
-46 22 35 51 -93 -42 -71 22
40 2 -41 -63 -14 -29 -7 -22
-6 -74 -27 38 25 -13 39 -104
27 -53 -25 -76 13 -47 3 -23
-31 -32 7 41 4 8 -12 -68
127 67 -34 -14 44 -36 19 -114
3 115 4 -43 -2 25 65 -38
20 19 -2 -6 -63 25 -55 -120
69 50 -15 61 77 30 -24 71
-29 28 -59 43 55 -66 -62 63
-44 -22 -48 -66 57 -6 -5 -45
00000000: 27ec 05ff f50a 07e2 d527 06ff 0ae7 2d06
00000010: f411 3d12 1302 fa05 ef31 08cd ec01 d908
00000020: 18fd f6e4 20fb 3226 ecf4 cfe8 fcec fffe
00000030: 0d0c f4e7 ebfc f519 f4ee 02eb 0920 dced
00000040: 2c24 faeb 16e1 4501 eb1c f9f6 3702 f6e4
00000050: 0712 ee11 15fe feb0 11fc f803 fc04 4203
00000060: 2809 f20c 0901 f610 0004 fa02 2d20 fd01
00000070: 0981 18cf 22fc 0dfd 29f5 f74c 0e17 d511
00000080: 0619 041d 052a 260d 0103 f1f3 c917 12fc
00000090: e24a f7eb c513 15d5 d8b6 cceb 04bc 4717
000000a0: 9922 2720 fdf8 cc0c d216 2333 a3d6 b916
000000b0: 2802 d7c1 f2e3 f9ea fab6 e526 19f3 2798
000000c0: 1bcb e7b4 0dd1 03e9 e1e0 0729 0408 f4bc
000000d0: 7f43 def2 2cdc 138e 0373 04d5 fe19 41da
000000e0: 1413 fefa c119 c988 4532 f13d 4d1e e847
000000f0: e31c c52b 37be c23f d4ea d0be 39fa fbd3

tfl.pseudo_qconst51 i1 [1, 3, 3, 144]
51 -59 -22 12 34 -4 -12 117
29 59 127 16 -23 22 -85 40
1 7 -21 30 31 28 2 -6
15 16 -4 5 29 29 -29 -25
-10 -9 9 4 52 -39 -6 -28
19 6 17 -40 50 -68 -16 35
-58 44 -121 -7 37 -112 3 -1
1 -9 19 -49 12 20 -15 -20
-5 22 61 13 9 -98 14 -15
34 49 32 3 -20 -1 39 17
-11 -36 23 -2 -9 14 -5 4
-10 21 -25 -13 2 0 -18 13
-75 10 -10 -3 25 12 9 -11
39 -10 80 11 -8 -10 23 49
-21 -20 44 44 -4 8 -29 39
7 -51 7 13 9 55 14 7
127 31 -7 -95 28 -13 -32 78
22 20 75 -104 23 88 64 23
-23 -59 -12 127 21 -8 21 12
45 63 -12 127 -77 -28 26 42
65 -3 -34 93 39 -15 127 8
127 60 29 -9 21 40 -102 15
-43 -15 17 -1 -34 -26 -16 -83
106 12 20 -50 4 66 -17 81
-25 -15 -85 0 36 -77 110 -13
-37 9 -4 41 -20 17 -32 -16
-117 57 11 95 11 -63 13 -127
-62 12 -96 43 -115 -14 22 94
-104 -71 25 10 -32 94 -65 -10
-71 72 -55 -98 -4 -3 -57 15
-12 16 9 -31 35 25 -51 -68
127 -73 -62 15 127 -127 58 10
00000000: 33c5 ea0c 22fc f475 1d3b 7f10 e916 ab28
00000010: 0107 eb1e 1f1c 02fa 0f10 fc05 1d1d e3e7
00000020: f6f7 0904 34d9 fae4 1306 11d8 32bc f023
00000030: c62c 87f9 2590 03ff 01f7 13cf 0c14 f1ec
00000040: fb16 3d0d 099e 0ef1 2231 2003 ecff 2711
00000050: f5dc 17fe f70e fb04 f615 e7f3 0200 ee0d
00000060: b50a f6fd 190c 09f5 27f6 500b f8f6 1731
00000070: ebec 2c2c fc08 e327 07cd 070d 0937 0e07
00000080: 7f1f f9a1 1cf3 e04e 1614 4b98 1758 4017
00000090: e9c5 f47f 15f8 150c 2d3f f47f b3e4 1a2a
000000a0: 41fd de5d 27f1 7f08 7f3c 1df7 1528 9a0f
000000b0: d5f1 11ff dee6 f0ad 6a0c 14ce 0442 ef51
000000c0: e7f1 ab00 24b3 6ef3 db09 fc29 ec11 e0f0
000000d0: 8b39 0b5f 0bc1 0d81 c20c a02b 8df2 165e
000000e0: 98b9 190a e05e bff6 b948 c99e fcfd c70f
000000f0: f410 09e1 2319 cdbc 7fb7 c20f 7f81 3a0a

tfl.pseudo_qconst53 i1 [144, 1, 1, 24]
69 94 -95 127 -98 -12 -50 17
-27 -53 47 32 -5 -15 -49 24
-20 -98 -50 -71 68 3 0 93
-127 -5 64 -31 -8 15 16 2
-16 21 5 32 35 20 6 -4
-5 38 23 39 45 11 -5 -1
-126 4 73 -82 61 -12 96 -98
100 39 -34 26 40 127 43 -26
-10 111 12 37 5 -31 9 1
51 16 40 -1 97 99 22 5
21 74 90 57 127 -37 33 -17
-7 -8 99 -11 31 33 52 27
37 -11 -75 -71 -11 -28 42 -6
11 32 127 -83 -17 20 22 22
1 5 20 -77 25 -3 30 -43
25 -127 -15 -51 -5 -50 96 20
2 25 -74 100 48 25 38 -71
-37 -14 -11 -10 -11 31 -24 33
-7 -5 8 2 -14 -1 -18 -11
-10 -8 -6 -15 -13 -127 0 -10
-19 0 45 6 -10 -41 5 -18
-69 -38 -14 14 -14 28 -44 127
-9 -1 40 -9 7 -8 -27 34
21 13 -12 9 9 42 19 -42
20 83 -14 9 -65 -26 124 -7
33 -126 0 -23 127 -28 11 6
-10 -32 -10 -61 54 -42 26 -53
-127 -16 -85 -19 -83 -18 -10 -9
-11 -58 29 -28 -93 0 -27 -6
31 37 -28 -29 -10 9 -18 -57
-10 -49 18 3 32 1 -15 -6
-56 -26 -27 3 -20 13 56 11
00000000: 455e a17f 9ef4 ce11 e5cb 2f20 fbf1 cf18
00000010: ec9e ceb9 4403 005d 81fb 40e1 f80f 1002
00000020: f015 0520 2314 06fc fb26 1727 2d0b fbff
00000030: 8204 49ae 3df4 609e 6427 de1a 287f 2be6
00000040: f66f 0c25 05e1 0901 3310 28ff 6163 1605
00000050: 154a 5a39 7fdb 21ef f9f8 63f5 1f21 341b
00000060: 25f5 b5b9 f5e4 2afa 0b20 7fad ef14 1616
00000070: 0105 14b3 19fd 1ed5 1981 f1cd fbce 6014
00000080: 0219 b664 3019 26b9 dbf2 f5f6 f51f e821
00000090: f9fb 0802 f2ff eef5 f6f8 faf1 f381 00f6
000000a0: ed00 2d06 f6d7 05ee bbda f20e f21c d47f
000000b0: f7ff 28f7 07f8 e522 150d f409 092a 13d6
000000c0: 1453 f209 bfe6 7cf9 2182 00e9 7fe4 0b06
000000d0: f6e0 f6c3 36d6 1acb 81f0 abed adee f6f7
000000e0: f5c6 1de4 a300 e5fa 1f25 e4e3 f609 eec7
000000f0: f6cf 1203 2001 f1fa c8e6 e503 ec0d 380b

tfl.pseudo_qconst55 i1 [24, 1, 1, 144]
8 7 19 -51 14 -1 8 21
-43 -22 -14 19 20 25 -5 10
15 -23 21 -13 29 42 24 -20
-2 21 -17 -10 1 -17 -72 -25
-21 -8 1 4 -12 7 45 -21
-11 -4 3 6 10 32 5 7
0 3 -14 -4 4 4 -24 -38
51 -11 22 -2 -2 24 -10 16
7 11 -15 -28 -9 -28 65 8
-35 4 8 -10 -7 -16 0 -9
-1 13 -17 19 -4 -4 -27 11
23 13 -5 15 15 1 -127 4
51 -6 -13 11 1 -11 8 7
-5 1 -23 25 6 -2 13 40
-23 -17 8 26 10 -5 2 -24
-31 4 1 -57 0 -16 1 12
24 -1 1 -2 -47 32 -8 1
32 -10 1 12 -4 -22 4 27
32 -78 38 -44 68 -63 -32 54
-22 -107 -13 -7 -25 -18 18 23
67 -100 -21 -22 53 -33 -1 14
-75 23 16 22 -27 -9 73 -39
73 -13 38 -73 38 22 -32 54
-4 -93 -5 -19 -25 -23 -50 -28
-77 -15 -14 -26 0 -71 -23 4
5 37 -99 -10 -5 -64 28 3
0 -45 -47 -13 2 -125 11 34
-16 41 16 -127 -28 -26 -13 23
-23 30 12 45 37 -68 28 -37
52 -57 -116 -78 -17 -15 58 52
-37 16 10 35 10 -110 17 14
-18 49 -43 29 41 -6 -36 36
00000000: 0807 13cd 0eff 0815 d5ea f213 1419 fb0a
00000010: 0fe9 15f3 1d2a 18ec fe15 eff6 01ef b8e7
00000020: ebf8 0104 f407 2deb f5fc 0306 0a20 0507
00000030: 0003 f2fc 0404 e8da 33f5 16fe fe18 f610
00000040: 070b f1e4 f7e4 4108 dd04 08f6 f9f0 00f7
00000050: ff0d ef13 fcfc e50b 170d fb0f 0f01 8104
00000060: 33fa f30b 01f5 0807 fb01 e919 06fe 0d28
00000070: e9ef 081a 0afb 02e8 e104 01c7 00f0 010c
00000080: 18ff 01fe d120 f801 20f6 010c fcea 041b
00000090: 20b2 26d4 44c1 e036 ea95 f3f9 e7ee 1217
000000a0: 439c ebea 35df ff0e b517 1016 e5f7 49d9
000000b0: 49f3 26b7 2616 e036 fca3 fbed e7e9 cee4
000000c0: b3f1 f2e6 00b9 e904 0525 9df6 fbc0 1c03
000000d0: 00d3 d1f3 0283 0b22 f029 1081 e4e6 f317
000000e0: e91e 0c2d 25bc 1cdb 34c7 8cb2 eff1 3a34
000000f0: db10 0a23 0a92 110e ee31 d51d 29fa dc24

tfl.pseudo_qconst57 i1 [1, 3, 3, 144]
6 -59 63 21 -13 36 34 12
5 20 -1 43 -4 -17 30 44
69 -23 -39 10 -2 23 -24 4
16 1 9 -18 28 -103 -42 -27
66 39 -12 6 -23 12 12 -24
12 -61 -71 0 18 -41 -42 -18
-6 27 1 32 20 13 45 -19
11 -25 7 104 51 4 -7 30
-28 58 14 127 -44 -31 -27 120
-40 26 -56 -53 38 6 104 3
-18 -4 16 -2 -15 -103 19 -116
24 -2 51 42 38 -4 -12 13
-20 -17 55 -55 -4 -79 69 -8
-7 -44 4 0 -11 10 34 22
26 -127 -4 -9 -45 5 -13 -77
-21 2 36 22 -20 -4 35 -61
12 -40 -2 -3 42 -5 39 44
56 38 10 34 23 -2 25 -57
8 37 127 127 26 -29 127 -21
31 6 -100 127 -5 72 -53 127
127 -109 -87 -101 -81 1 37 14
-10 2 -4 14 -5 -50 -68 -31
-76 3 2 13 47 4 127 15
16 -95 -28 127 115 -110 -57 -46
100 -7 12 24 127 28 127 16
-9 -64 -55 37 -18 9 -51 15
-106 113 57 79 5 -23 -44 -9
26 46 -68 -36 127 -3 17 -127
-36 127 25 -41 42 -43 -8 -97
127 -19 127 48 127 127 -11 127
-58 -29 127 -112 -57 -96 -19 20
-34 -127 11 -19 -127 -8 77 38
00000000: 06c5 3f15 f324 220c 0514 ff2b fcef 1e2c
00000010: 45e9 d90a fe17 e804 1001 09ee 1c99 d6e5
00000020: 4227 f406 e90c 0ce8 0cc3 b900 12d7 d6ee
00000030: fa1b 0120 140d 2ded 0be7 0768 3304 f91e
00000040: e43a 0e7f d4e1 e578 d81a c8cb 2606 6803
00000050: eefc 10fe f199 138c 18fe 332a 26fc f40d
00000060: ecef 37c9 fcb1 45f8 f9d4 0400 f50a 2216
00000070: 1a81 fcf7 d305 f3b3 eb02 2416 ecfc 23c3
00000080: 0cd8 fefd 2afb 272c 3826 0a22 17fe 19c7
00000090: 0825 7f7f 1ae3 7feb 1f06 9c7f fb48 cb7f
000000a0: 7f93 a99b af01 250e f602 fc0e fbce bce1
000000b0: b403 020d 2f04 7f0f 10a1 e47f 7392 c7d2
000000c0: 64f9 0c18 7f1c 7f10 f7c0 c925 ee09 cd0f
000000d0: 9671 394f 05e9 d4f7 1a2e bcdc 7ffd 1181
000000e0: dc7f 19d7 2ad5 f89f 7fed 7f30 7f7f f57f
000000f0: c6e3 7f90 c7a0 ed14 de81 0bed 81f8 4d26
