Code/TensorFlow/export/RoadLiteMobileNetV2.tflite (tflite, 684648 bytes, 54 tensors)

tfl.pseudo_qconst1 i1 [7, 48]
-124 115 -6 -2 -112 47 -31 94
-56 -6 112 117 62 48 -100 -74
-6 48 -36 26 23 83 -5 2
13 -36 -114 -1 -5 -120 -74 -5
-87 104 -127 -100 -6 -83 -18 -26
-85 93 -114 33 -2 -7 96 -72
-122 -30 -4 -6 -39 -85 -24 -81
-75 -35 -52 -20 -86 -24 39 -5
-1 -92 -25 19 69 51 -7 -2
34 -68 -13 -4 -8 39 -87 -7
-18 127 -78 -84 -1 72 -64 -115
12 -82 -77 -90 -28 -3 84 -13
15 -86 -11 3 12 1 -25 0
-16 -7 104 -54 71 -127 47 43
-7 -5 -1 21 100 -108 -7 8
-111 -75 -91 6 -5 91 54 -6
-38 46 40 8 -9 -55 -52 102
64 -74 47 30 -69 -8 -109 -109
34 41 -5 -11 -31 -35 -10 -105
24 -27 -32 28 62 -114 -26 -33
-12 8 -82 24 -73 12 -10 -7
-1 -33 27 -11 -10 -24 -82 -2
5 113 86 45 15 25 -9 108
-18 76 25 -127 -11 -8 2 -48
73 -25 -2 -5 -127 29 -33 84
93 -60 49 42 -50 54 4 25
-3 14 -107 -120 86 -69 -6 -2
113 -43 -5 -4 -6 -121 -91 -4
-26 57 93 16 -1 102 -10 -23
11 -89 -27 73 -14 -3 -58 -76
106 -62 5 -11 88 -29 -45 -12
51 -51 89 12 73 -88 8 -105
00000000: 8473 fafe 902f e15e c8fa 7075 3e30 9cb6
00000010: fa30 dc1a 1753 fb02 0ddc 8eff fb88 b6fb
00000020: a968 819c faad eee6 ab5d 8e21 fef9 60b8
00000030: 86e2 fcfa d9ab e8af b5dd ccec aae8 27fb
00000040: ffa4 e713 4533 f9fe 22bc f3fc f827 a9f9
00000050: ee7f b2ac ff48 c08d 0cae b3a6 e4fd 54f3
00000060: 0faa f503 0c01 e700 f0f9 68ca 4781 2f2b
00000070: f9fb ff15 6494 f908 91b5 a506 fb5b 36fa
00000080: da2e 2808 f7c9 cc66 40b6 2f1e bbf8 9393
00000090: 2229 fbf5 e1dd f697 18e5 e01c 3e8e e6df
000000a0: f408 ae18 b70c f6f9 ffdf 1bf5 f6e8 aefe
000000b0: 0571 562d 0f19 f76c ee4c 1981 f5f8 02d0
000000c0: 49e7 fefb 811d df54 5dc4 312a ce36 0419
000000d0: fd0e 9588 56bb fafe 71d5 fbfc fa87 a5fc
000000e0: e639 5d10 ff66 f6e9 0ba7 e549 f2fd c6b4
000000f0: 6ac2 05f5 58e3 d3f4 33cd 590c 49a8 0897

tfl.pseudo_qconst3 i1 [48, 1280]
6 46 -39 2 -41 -23 -31 46
-111 1 -78 -38 -104 -59 -45 30
61 34 -18 13 -12 -21 -95 -2
-47 -47 -14 -5 -37 -72 65 -82
-7 56 6 10 -33 -63 65 2
-38 -35 -6 9 17 -27 -95 -31
-51 30 -25 41 -40 -8 -54 -7
17 12 23 -59 42 44 -25 -19
-67 -89 -36 -27 61 -61 -76 6
-97 -79 -90 -95 -41 -29 -36 16
-24 -7 -127 16 3 -37 19 -15
29 -82 -110 -89 -68 13 -14 -59
-80 -33 -24 62 -123 -24 16 53
-65 -20 -85 -74 39 -18 65 20
42 -59 -7 -25 -11 -98 59 20
8 -37 -60 -14 11 -95 -70 -25
69 3 43 -95 -59 14 5 -6
-72 -80 63 -27 15 -41 36 62
-110 22 -20 -62 11 -44 -13 -82
-7 54 53 6 -109 61 -68 -57
-18 3 -28 32 -36 -49 59 -99
-92 -74 -34 -99 -47 25 23 11
-37 -15 -19 -57 -4 -42 14 -44
-26 26 -26 -78 -59 33 15 5
-80 -32 125 -57 -14 32 -51 -98
67 -7 6 -112 51 15 -65 -63
-51 -59 67 -15 -46 17 -36 -19
-52 -98 7 -78 -58 -75 -51 -78
-11 -65 -83 26 -10 -9 19 -43
-97 -10 -67 -53 -39 -92 -29 -9
-99 16 -62 -9 -53 -41 -56 -7
6 -70 -96 6 -61 -1 40 -77
00000000: 062e d902 d7e9 e12e 9101 b2da 98c5 d31e
00000010: 3d22 ee0d f4eb a1fe d1d1 f2fb dbb8 41ae
00000020: f938 060a dfc1 4102 dadd fa09 11e5 a1e1
00000030: cd1e e729 d8f8 caf9 110c 17c5 2a2c e7ed
00000040: bda7 dce5 3dc3 b406 9fb1 a6a1 d7e3 dc10
00000050: e8f9 8110 03db 13f1 1dae 92a7 bc0d f2c5
00000060: b0df e83e 85e8 1035 bfec abb6 27ee 4114
00000070: 2ac5 f9e7 f59e 3b14 08db c4f2 0ba1 bae7
00000080: 4503 2ba1 c50e 05fa b8b0 3fe5 0fd7 243e
00000090: 9216 ecc2 0bd4 f3ae f936 3506 933d bcc7
000000a0: ee03 e420 dccf 3b9d a4b6 de9d d119 170b
000000b0: dbf1 edc7 fcd6 0ed4 e61a e6b2 c521 0f05
000000c0: b0e0 7dc7 f220 cd9e 43f9 0690 330f bfc1
000000d0: cdc5 43f1 d211 dced cc9e 07b2 c6b5 cdb2
000000e0: f5bf ad1a f6f7 13d5 9ff6 bdcb d9a4 e3f7
000000f0: 9d10 c2f7 cbd7 c8f9 06ba a006 c3ff 28b3

tfl.pseudo_qconst5 i1 [1280, 1, 1, 112]
59 -39 -23 -113 -38 23 -46 27
42 -13 5 -54 36 -48 -28 -92
-120 56 74 -19 -26 -85 -28 77
10 -105 -41 101 -74 -62 14 32
-29 16 16 9 50 22 47 79
30 -23 77 -81 64 -21 38 5
2 -48 -28 10 88 -68 -31 5
21 -10 -87 56 3 -9 -6 4
35 -21 -8 -87 8 -8 38 81
-34 -62 -21 -19 107 -61 24 1
14 27 0 -41 -23 -15 -21 -27
-70 37 -19 -4 18 -52 25 11
2 -59 -58 -127 122 28 72 -13
-23 -14 -10 -67 47 -59 -82 31
13 -71 31 -20 -2 51 63 -7
26 -37 15 -68 -61 -32 -47 -49
-83 59 -40 -35 16 48 -22 -48
36 10 23 9 -1 28 -32 31
-6 -2 -22 3 22 -9 15 -48
8 -57 27 -111 10 26 -17 -46
12 -30 -4 -36 61 -28 -73 -29
12 -6 -9 -15 8 38 34 -21
-62 43 -33 -24 -57 40 50 -30
51 -60 21 -89 2 44 -35 -37
-11 -1 -29 -16 -35 -38 25 4
24 3 -90 -15 -35 -25 30 -64
48 -23 -41 -20 -32 -15 28 127
-20 -46 0 -40 64 -2 -15 -69
26 -41 -9 -19 68 11 -32 -30
-24 -34 65 -19 -6 -30 -1 32
-8 30 -13 -12 34 43 8 -7
-24 24 71 -47 -6 -56 17 -22
00000000: 3bd9 e98f da17 d21b 2af3 05ca 24d0 e4a4
00000010: 8838 4aed e6ab e44d 0a97 d765 b6c2 0e20
00000020: e310 1009 3216 2f4f 1ee9 4daf 40eb 2605
00000030: 02d0 e40a 58bc e105 15f6 a938 03f7 fa04
00000040: 23eb f8a9 08f8 2651 dec2 ebed 6bc3 1801
00000050: 0e1b 00d7 e9f1 ebe5 ba25 edfc 12cc 190b
00000060: 02c5 c681 7a1c 48f3 e9f2 f6bd 2fc5 ae1f
00000070: 0db9 1fec fe33 3ff9 1adb 0fbc c3e0 d1cf
00000080: ad3b d8dd 1030 ead0 240a 1709 ff1c e01f
00000090: fafe ea03 16f7 0fd0 08c7 1b91 0a1a efd2
000000a0: 0ce2 fcdc 3de4 b7e3 0cfa f7f1 0826 22eb
000000b0: c22b dfe8 c728 32e2 33c4 15a7 022c dddb
000000c0: f5ff e3f0 ddda 1904 1803 a6f1 dde7 1ec0
000000d0: 30e9 d7ec e0f1 1c7f ecd2 00d8 40fe f1bb
000000e0: 1ad7 f7ed 440b e0e2 e8de 41ed fae2 ff20
000000f0: f81e f3f4 222b 08f9 e818 47d1 fac8 11ea

tfl.pseudo_qconst7 i1 [112, 1, 1, 336]
-115 102 -15 43 -73 65 46 30
72 -35 10 -91 -1 32 -34 -6
63 -5 -25 -43 13 14 -3 6
-16 0 68 19 -34 1 -30 14
32 -1 -33 40 12 -51 -59 -12
-33 122 -32 -59 39 -65 27 -14
29 -15 26 -23 26 -1 -19 16
11 -21 15 47 50 -76 -8 17
-42 25 63 -1 -37 -26 -56 -75
-7 46 -41 -11 -29 -27 -65 3
-46 10 -13 4 -10 -8 68 -34
7 30 -77 9 -2 83 -24 -50
18 -29 3 -64 -38 2 0 -15
-57 -9 42 -96 -54 -22 106 -43
-13 -56 -7 3 15 -24 28 -7
-32 -35 -31 -13 -58 34 13 33
-12 51 28 21 10 -28 -63 9
66 -100 5 -24 -18 6 -50 -55
-43 -35 -16 -39 1 -45 -8 1
9 80 10 -18 77 34 -24 -11
-22 -27 8 -93 12 -12 -34 51
-39 -34 -33 45 8 60 12 0
-1 7 -3 -22 9 50 -18 18
25 -15 21 -29 61 -1 -40 -2
-11 8 10 -3 5 21 -72 -21
-6 27 1 -20 -10 -20 65 83
-13 22 72 29 28 -6 -49 6
-28 15 -15 -46 -21 -18 12 47
-12 4 37 -4 -38 18 -62 -17
-65 -33 83 -4 -57 -8 8 46
-3 -9 -8 44 -19 37 -32 74
-41 -23 6 1 28 97 7 38
00000000: 8d66 f12b b741 2e1e 48dd 0aa5 ff20 defa
00000010: 3ffb e7d5 0d0e fd06 f000 4413 de01 e20e
00000020: 20ff df28 0ccd c5f4 df7a e0c5 27bf 1bf2
00000030: 1df1 1ae9 1aff ed10 0beb 0f2f 32b4 f811
00000040: d619 3fff dbe6 c8b5 f92e d7f5 e3e5 bf03
00000050: d20a f304 f6f8 44de 071e b309 fe53 e8ce
00000060: 12e3 03c0 da02 00f1 c7f7 2aa0 caea 6ad5
00000070: f3c8 f903 0fe8 1cf9 e0dd e1f3 c622 0d21
00000080: f433 1c15 0ae4 c109 429c 05e8 ee06 cec9
00000090: d5dd f0d9 01d3 f801 0950 0aee 4d22 e8f5
000000a0: eae5 08a3 0cf4 de33 d9de df2d 083c 0c00
000000b0: ff07 fdea 0932 ee12 19f1 15e3 3dff d8fe
000000c0: f508 0afd 0515 b8eb fa1b 01ec f6ec 4153
000000d0: f316 481d 1cfa cf06 e40f f1d2 ebee 0c2f
000000e0: f404 25fc da12 c2ef bfdf 53fc c7f8 082e
000000f0: fdf7 f82c ed25 e04a d7e9 0601 1c61 0726

tfl.pseudo_qconst9 i1 [1, 3, 3, 336]
126 127 127 82 123 127 -127 -127
-127 123 120 125 127 -104 19 127
127 127 -127 -127 127 87 104 93
-85 127 4 -117 127 119 -122 121
-127 124 127 127 127 -125 127 116
-127 -127 122 91 127 11 127 115
121 114 109 127 116 -127 118 -127
112 127 -119 115 97 123 127 125
-114 -127 122 127 -105 127 127 118
127 126 -81 127 127 127 121 123
-116 124 28 126 62 127 127 127
127 -127 101 127 127 121 80 127
127 -127 105 123 127 127 -127 79
127 127 127 116 -122 -127 35 -107
126 127 127 -127 -122 127 122 125
127 104 -127 -127 -127 -127 126 -111
-120 127 -124 124 127 -127 97 -120
-127 -127 -98 127 127 -111 -80 -127
127 121 -127 127 -127 127 127 127
-120 124 127 -117 127 127 110 127
123 -124 -127 127 -123 127 127 -127
94 96 -118 -127 77 127 127 -111
127 -127 124 127 126 108 -127 127
127 -111 127 -127 127 127 127 127
109 70 127 127 -123 124 126 127
100 -92 111 118 127 -127 -127 71
102 126 -127 127 127 127 127 126
127 127 -99 -114 127 -127 127 127
-123 127 96 106 125 -44 105 123
-117 -93 -127 127 119 127 127 127
127 127 127 118 113 -114 -82 -127
-109 -125 -127 -118 127 -114 -126 126
00000000: 7e7f 7f52 7b7f 8181 817b 787d 7f98 137f
00000010: 7f7f 8181 7f57 685d ab7f 048b 7f77 8679
00000020: 817c 7f7f 7f83 7f74 8181 7a5b 7f0b 7f73
00000030: 7972 6d7f 7481 7681 707f 8973 617b 7f7d
00000040: 8e81 7a7f 977f 7f76 7f7e af7f 7f7f 797b
00000050: 8c7c 1c7e 3e7f 7f7f 7f81 657f 7f79 507f
00000060: 7f81 697b 7f7f 814f 7f7f 7f74 8681 2395
00000070: 7e7f 7f81 867f 7a7d 7f68 8181 8181 7e91
00000080: 887f 847c 7f81 6188 8181 9e7f 7f91 b081
00000090: 7f79 817f 817f 7f7f 887c 7f8b 7f7f 6e7f
000000a0: 7b84 817f 857f 7f81 5e60 8a81 4d7f 7f91
000000b0: 7f81 7c7f 7e6c 817f 7f91 7f81 7f7f 7f7f
000000c0: 6d46 7f7f 857c 7e7f 64a4 6f76 7f81 8147
000000d0: 667e 817f 7f7f 7f7e 7f7f 9d8e 7f81 7f7f
000000e0: 857f 606a 7dd4 697b 8ba3 817f 777f 7f7f
000000f0: 7f7f 7f76 718e ae81 9383 818a 7f8e 827e

tfl.pseudo_qconst11 i1 [336, 1, 1, 56]
-23 13 -21 -127 76 -40 -99 -8
18 38 20 14 48 6 31 113
30 21 -10 31 -65 -49 -30 49
38 4 -20 -8 -28 72 -45 21
-8 4 -21 -56 16 -23 5 2
13 28 27 -19 10 -46 -19 -32
-69 -9 -5 12 -65 15 -69 -84
127 -42 -25 -92 6 29 -26 -52
22 -54 -21 8 -74 20 27 -123
4 46 -79 0 -21 4 12 34
1 -30 -42 -10 38 23 -2 21
-108 -12 86 -24 67 -25 -59 33
-35 -17 61 -55 19 3 44 11
8 -83 29 35 27 18 -46 -4
65 -100 -8 -50 -8 -26 31 19
-7 114 20 48 -41 2 8 -30
-61 -41 -68 -41 -33 -61 22 50
-39 72 -26 -27 -122 7 69 27
60 -58 31 -43 60 -45 -78 46
45 38 46 127 -8 -1 47 -36
17 -58 31 21 -3 40 10 -13
9 -25 -20 -9 -46 21 -36 -59
-31 12 -39 127 -18 27 -14 -3
13 42 91 -10 7 -24 24 -32
27 70 16 -60 -6 45 1 -37
28 -19 19 -18 0 -31 -7 32
20 -97 -43 11 -43 43 33 -17
-29 -22 -84 24 19 -41 -34 42
-13 -10 10 39 -40 -15 32 5
35 -27 11 25 -11 7 -34 -73
-25 -11 -19 -23 0 20 -17 92
-26 6 -71 -21 -28 -4 -14 -5
00000000: e90d eb81 4cd8 9df8 1226 140e 3006 1f71
00000010: 1e15 f61f bfcf e231 2604 ecf8 e448 d315
00000020: f804 ebc8 10e9 0502 0d1c 1bed 0ad2 ede0
00000030: bbf7 fb0c bf0f bbac 7fd6 e7a4 061d e6cc
00000040: 16ca eb08 b614 1b85 042e b100 eb04 0c22
00000050: 01e2 d6f6 2617 fe15 94f4 56e8 43e7 c521
00000060: ddef 3dc9 1303 2c0b 08ad 1d23 1b12 d2fc
00000070: 419c f8ce f8e6 1f13 f972 1430 d702 08e2
00000080: c3d7 bcd7 dfc3 1632 d948 e6e5 8607 451b
00000090: 3cc6 1fd5 3cd3 b22e 2d26 2e7f f8ff 2fdc
000000a0: 11c6 1f15 fd28 0af3 09e7 ecf7 d215 dcc5
000000b0: e10c d97f ee1b f2fd 0d2a 5bf6 07e8 18e0
000000c0: 1b46 10c4 fa2d 01db 1ced 13ee 00e1 f920
000000d0: 149f d50b d52b 21ef e3ea ac18 13d7 de2a
000000e0: f3f6 0a27 d8f1 2005 23e5 0b19 f507 deb7
000000f0: e7f5 ede9 0014 ef5c e606 b9eb e4fc f2fb

tfl.pseudo_qconst13 i1 [56, 1, 1, 336]
16 49 -81 4 -12 -27 59 23
28 -22 -58 28 17 -11 -16 -4
-8 0 7 -35 10 -54 24 -76
127 -9 -18 7 -19 11 52 -10
27 -49 -18 -16 1 -6 30 -27
-24 17 48 -29 -14 -15 35 24
4 -9 -72 37 18 5 -4 8
88 -2 -46 7 -9 -95 29 -38
-38 -28 -11 24 1 16 -41 -6
48 -7 -16 1 6 15 26 78
-17 -37 -79 3 -57 19 31 -17
14 -33 25 -5 18 -43 7 -78
11 -19 46 77 35 -66 27 -2
50 -7 -64 -19 18 3 -49 -38
-40 -48 -33 25 -28 -48 66 -49
9 -31 -78 41 -22 -35 4 -29
-11 -16 10 -43 55 -16 -39 53
-35 -45 67 -52 41 63 29 3
20 46 -5 12 60 5 -13 29
25 25 -86 -10 -20 -44 60 -88
56 29 -6 -15 32 68 -49 68
14 -35 20 22 15 76 -24 -28
11 -21 18 15 28 24 29 73
-112 15 39 85 -38 0 18 56
-1 33 -28 -16 -40 -22 12 -6
10 -71 -69 21 -28 44 30 -61
13 9 -27 -46 -125 -44 99 26
11 4 -8 -64 -10 15 -55 51
45 -35 -31 38 -25 4 21 -59
60 -9 21 47 12 -36 15 26
2 78 -113 4 -43 59 -91 1
60 62 81 42 46 28 -9 -55
00000000: 1031 af04 f4e5 3b17 1cea c61c 11f5 f0fc
00000010: f800 07dd 0aca 18b4 7ff7 ee07 ed0b 34f6
00000020: 1bcf eef0 01fa 1ee5 e811 30e3 f2f1 2318
00000030: 04f7 b825 1205 fc08 58fe d207 f7a1 1dda
00000040: dae4 f518 0110 d7fa 30f9 f001 060f 1a4e
00000050: efdb b103 c713 1fef 0edf 19fb 12d5 07b2
00000060: 0bed 2e4d 23be 1bfe 32f9 c0ed 1203 cfda
00000070: d8d0 df19 e4d0 42cf 09e1 b229 eadd 04e3
00000080: f5f0 0ad5 37f0 d935 ddd3 43cc 293f 1d03
00000090: 142e fb0c 3c05 f31d 1919 aaf6 ecd4 3ca8
000000a0: 381d faf1 2044 cf44 0edd 1416 0f4c e8e4
000000b0: 0beb 120f 1c18 1d49 900f 2755 da00 1238
000000c0: ff21 e4f0 d8ea 0cfa 0ab9 bb15 e42c 1ec3
000000d0: 0d09 e5d2 83d4 631a 0b04 f8c0 f60f c933
000000e0: 2ddd e126 e704 15c5 3cf7 152f 0cdc 0f1a
000000f0: 024e 8f04 d53b a501 3c3e 512a 2e1c f7c9

tfl.pseudo_qconst15 i1 [1, 3, 3, 336]
84 24 38 54 17 6 -2 30
43 44 36 -8 127 52 12 -37
17 -38 58 -58 5 -3 39 54
-28 -27 127 -9 -108 60 28 44
5 27 65 17 -40 20 100 -22
17 7 43 -48 -119 70 89 17
21 -31 5 -118 -49 -11 0 34
15 -19 -17 17 -38 64 38 -2
8 107 29 9 -17 63 -13 -29
28 -1 -15 112 117 -4 32 20
57 10 -67 -112 45 5 49 -4
-57 26 93 90 27 26 99 12
22 30 -72 1 127 -8 55 -3
-39 -102 -10 -26 27 22 -8 -30
-110 9 -53 15 107 7 -50 52
86 54 -7 -34 -112 11 14 0
44 -8 -51 127 -26 43 127 -44
4 57 -127 -40 6 127 4 45
-117 -7 -73 -11 15 -8 -92 75
28 5 19 -127 36 2 9 8
5 -6 127 47 66 60 -95 -25
-2 -9 40 55 78 65 -58 65
8 -37 75 2 -14 -43 33 -28
10 -26 17 -4 -20 72 -5 -4
-19 -78 72 120 -86 49 39 27
57 -24 23 -30 40 30 61 5
-37 40 12 30 19 -96 29 -96
-62 -67 60 26 1 -127 31 4
-11 -12 19 -17 16 17 18 48
41 -114 59 23 -51 -9 9 8
-7 45 47 70 23 -6 51 -90
-59 19 -127 2 58 -108 -2 -60
00000000: 5418 2636 1106 fe1e 2b2c 24f8 7f34 0cdb
00000010: 11da 3ac6 05fd 2736 e4e5 7ff7 943c 1c2c
00000020: 051b 4111 d814 64ea 1107 2bd0 8946 5911
00000030: 15e1 058a cff5 0022 0fed ef11 da40 26fe
00000040: 086b 1d09 ef3f f3e3 1cff f170 75fc 2014
00000050: 390a bd90 2d05 31fc c71a 5d5a 1b1a 630c
00000060: 161e b801 7ff8 37fd d99a f6e6 1b16 f8e2
00000070: 9209 cb0f 6b07 ce34 5636 f9de 900b 0e00
00000080: 2cf8 cd7f e62b 7fd4 0439 81d8 067f 042d
00000090: 8bf9 b7f5 0ff8 a44b 1c05 1381 2402 0908
000000a0: 05fa 7f2f 423c a1e7 fef7 2837 4e41 c641
000000b0: 08db 4b02 f2d5 21e4 0ae6 11fc ec48 fbfc
000000c0: edb2 4878 aa31 271b 39e8 17e2 281e 3d05
000000d0: db28 0c1e 13a0 1da0 c2bd 3c1a 0181 1f04
000000e0: f5f4 13ef 1011 1230 298e 3b17 cdf7 0908
000000f0: f92d 2f46 17fa 33a6 c513 8102 3a94 fec4

tfl.pseudo_qconst17 i1 [336, 1, 1, 56]
-32 35 -4 0 -12 51 -29 -83
-70 30 38 -69 19 127 -24 -53
3 61 70 -27 -32 -76 -15 9
-37 65 38 -86 -31 -62 -33 -75
4 37 -20 16 -10 26 -97 32
6 16 -16 -65 -66 -23 88 40
22 68 -48 87 80 -77 -73 11
4 -82 80 16 25 -21 48 13
76 45 -53 2 -6 -47 -42 22
25 37 0 10 -16 -2 -81 35
-8 52 61 -51 -6 115 -9 32
46 7 43 76 -50 -83 -52 -53
-56 -17 12 -92 86 61 -116 -2
36 -127 44 -29 -29 -54 -31 -74
58 -82 -12 38 -11 83 -56 -45
-26 -13 -24 -22 24 -14 -4 -63
-67 -28 11 -10 -12 84 9 -47
18 -34 17 2 -15 -26 2 -6
10 -76 41 -54 -46 -38 38 59
-12 -9 127 67 6 34 -56 -33
29 93 -9 42 -19 30 -15 -13
-41 -33 -14 26 -84 -98 -127 3
36 -13 -38 -22 34 -46 -19 29
63 45 -35 -63 14 86 -56 15
55 52 32 -89 32 22 -31 18
-21 -16 42 40 -24 -33 -14 54
-60 35 -13 -35 17 -9 29 -46
36 -91 -29 55 -23 14 -60 -53
16 -46 -20 -6 5 0 24 -34
-51 -2 19 -27 1 48 28 -12
-21 35 1 -40 31 9 4 -27
-17 3 28 74 -42 -46 52 25
00000000: e023 fc00 f433 e3ad ba1e 26bb 137f e8cb
00000010: 033d 46e5 e0b4 f109 db41 26aa e1c2 dfb5
00000020: 0425 ec10 f61a 9f20 0610 f0bf bee9 5828
00000030: 1644 d057 50b3 b70b 04ae 5010 19eb 300d
00000040: 4c2d cb02 fad1 d616 1925 000a f0fe af23
00000050: f834 3dcd fa73 f720 2e07 2b4c cead cccb
00000060: c8ef 0ca4 563d 8cfe 2481 2ce3 e3ca e1b6
00000070: 3aae f426 f553 c8d3 e6f3 e8ea 18f2 fcc1
00000080: bde4 0bf6 f454 09d1 12de 1102 f1e6 02fa
00000090: 0ab4 29ca d2da 263b f4f7 7f43 0622 c8df
000000a0: 1d5d f72a ed1e f1f3 d7df f21a ac9e 8103
000000b0: 24f3 daea 22d2 ed1d 3f2d ddc1 0e56 c80f
000000c0: 3734 20a7 2016 e112 ebf0 2a28 e8df f236
000000d0: c423 f3dd 11f7 1dd2 24a5 e337 e90e c4cb
000000e0: 10d2 ecfa 0500 18de cdfe 13e5 0130 1cf4
000000f0: eb23 01d8 1f09 04e5 ef03 1c4a d6d2 3419

tfl.pseudo_qconst19 i1 [56, 1, 1, 336]
-48 55 50 36 19 -12 32 -35
43 -6 19 96 -32 110 22 23
71 -25 -38 17 53 -91 10 17
-25 -24 12 25 67 18 20 -8
-39 -28 -12 -20 -30 5 -33 0
8 13 32 49 53 -1 -24 96
23 -33 15 7 38 21 -77 28
49 6 65 33 -27 21 47 -17
-5 16 -7 86 23 -2 -39 -10
87 13 -32 16 -4 -29 40 -8
66 8 -30 -66 14 4 31 31
29 -17 -13 20 23 -29 8 -9
13 6 -10 54 -40 -6 -18 67
35 30 -44 37 -25 -58 1 -29
-3 2 43 30 -42 -77 16 -51
23 -73 33 30 3 -23 -88 -43
-51 5 -14 28 -58 -70 -20 -57
-23 -24 -7 98 8 16 -109 -64
-50 -5 12 -42 -10 51 30 48
56 32 -28 64 70 -29 -27 -65
52 70 45 -89 -32 -36 51 2
68 7 5 -18 46 -28 -14 -3
-25 -75 -5 -4 24 50 -1 -18
0 -7 -12 27 -63 -28 -71 -57
16 -44 52 40 -31 9 53 -11
30 -51 -6 47 -64 3 -4 32
-38 -19 -1 22 44 20 -45 29
18 -78 -22 -21 -21 24 8 43
9 6 -11 34 -32 15 -23 53
-7 -24 0 -36 -44 15 -93 4
25 21 5 -40 -13 -30 -114 -11
-33 -92 -2 21 -6 14 -4 43
00000000: d037 3224 13f4 20dd 2bfa 1360 e06e 1617
00000010: 47e7 da11 35a5 0a11 e7e8 0c19 4312 14f8
00000020: d9e4 f4ec e205 df00 080d 2031 35ff e860
00000030: 17df 0f07 2615 b31c 3106 4121 e515 2fef
00000040: fb10 f956 17fe d9f6 570d e010 fce3 28f8
00000050: 4208 e2be 0e04 1f1f 1def f314 17e3 08f7
00000060: 0d06 f636 d8fa ee43 231e d425 e7c6 01e3
00000070: fd02 2b1e d6b3 10cd 17b7 211e 03e9 a8d5
00000080: cd05 f21c c6ba ecc7 e9e8 f962 0810 93c0
00000090: cefb 0cd6 f633 1e30 3820 e440 46e3 e5bf
000000a0: 3446 2da7 e0dc 3302 4407 05ee 2ee4 f2fd
000000b0: e7b5 fbfc 1832 ffee 00f9 f41b c1e4 b9c7
000000c0: 10d4 3428 e109 35f5 1ecd fa2f c003 fc20
000000d0: daed ff16 2c14 d31d 12b2 eaeb eb18 082b
000000e0: 0906 f522 e00f e935 f9e8 00dc d40f a304
000000f0: 1915 05d8 f3e2 8ef5 dfa4 fe15 fa0e fc2b

tfl.pseudo_qconst21 i1 [1, 3, 3, 336]
-21 -12 62 -47 56 63 48 8
-93 -31 -29 44 -17 2 -12 50
-108 -79 -59 55 -80 55 -53 -38
-21 9 62 72 -34 -120 50 24
-33 -5 -127 29 0 22 -37 18
-1 74 7 -7 28 -42 11 19
77 -28 -91 44 -21 -11 13 127
-21 -127 8 23 48 -25 -114 36
31 32 -14 51 118 -9 30 -81
45 1 49 -30 62 11 -43 -23
54 39 41 2 -45 -75 -32 -59
63 -69 50 4 39 57 71 39
-27 111 -89 -29 -17 -27 16 46
39 28 -19 -54 69 31 30 52
45 -57 -65 -127 33 -23 -70 32
-44 66 -63 -120 45 -7 -64 45
-9 -77 -13 1 -46 -37 -32 -111
17 -16 -67 62 17 -1 65 -9
5 93 127 -51 40 17 -94 -15
29 110 -45 27 -3 47 -14 -127
59 -56 -61 -127 -1 62 43 7
29 30 -73 59 15 32 0 82
-34 32 -12 -77 88 32 -30 -28
43 -19 41 -33 49 55 -110 -2
64 18 45 -120 34 31 65 -42
-34 26 64 -46 -12 -43 -13 -15
-21 4 -127 -2 -115 -41 38 -81
-57 -37 66 24 -20 -6 44 -10
30 37 123 44 -117 -4 10 54
-12 63 -65 -2 -34 127 44 59
-24 76 -96 -34 78 46 17 40
26 -3 64 34 -74 -59 72 86
00000000: ebf4 3ed1 383f 3008 a3e1 e32c ef02 f432
00000010: 94b1 c537 b037 cbda eb09 3e48 de88 3218
00000020: dffb 811d 0016 db12 ff4a 07f9 1cd6 0b13
00000030: 4de4 a52c ebf5 0d7f eb81 0817 30e7 8e24
00000040: 1f20 f233 76f7 1eaf 2d01 31e2 3e0b d5e9
00000050: 3627 2902 d3b5 e0c5 3fbb 3204 2739 4727
00000060: e56f a7e3 efe5 102e 271c edca 451f 1e34
00000070: 2dc7 bf81 21e9 ba20 d442 c188 2df9 c02d
00000080: f7b3 f301 d2db e091 11f0 bd3e 11ff 41f7
00000090: 055d 7fcd 2811 a2f1 1d6e d31b fd2f f281
000000a0: 3bc8 c381 ff3e 2b07 1d1e b73b 0f20 0052
000000b0: de20 f4b3 5820 e2e4 2bed 29df 3137 92fe
000000c0: 4012 2d88 221f 41d6 de1a 40d2 f4d5 f3f1
000000d0: eb04 81fe 8dd7 26af c7db 4218 ecfa 2cf6
000000e0: 1e25 7b2c 8bfc 0a36 f43f bffe de7f 2c3b
000000f0: e84c a0de 4e2e 1128 1afd 4022 b6c5 4856

tfl.pseudo_qconst23 i1 [336, 1, 1, 56]
16 81 -61 1 74 25 54 -89
12 42 -42 95 113 42 -114 -101
27 55 18 58 -53 65 16 -74
-85 48 56 -23 36 81 6 7
-2 1 -67 -48 125 71 -33 93
-100 -66 -102 64 -30 23 127 14
100 -80 43 -74 -92 -99 -65 -2
27 52 -72 -17 12 19 34 -14
21 8 67 34 26 -22 18 -32
58 31 -35 113 -32 -1 -69 -14
11 -44 7 71 -29 12 -84 29
4 41 -5 28 -35 21 14 -127
14 -76 12 -73 85 1 -6 36
26 72 -16 -21 -42 39 38 20
1 -2 28 -83 -51 -65 26 -91
40 54 -108 56 17 8 -3 -48
17 -5 -40 19 -14 -46 3 -72
-94 -76 38 -68 60 27 44 65
-1 13 -2 67 57 123 -5 63
-79 10 -14 16 -24 -92 32 33
-55 -1 -21 -70 -127 -121 21 -27
-38 -19 -14 -41 -63 -71 48 -18
7 48 23 -16 8 42 -12 1
9 -23 -2 -9 25 -5 -38 -36
28 10 43 -4 48 56 -53 -25
32 74 -24 22 -20 -93 6 -47
-18 127 -11 82 -54 24 62 5
-14 -10 -6 9 -22 -7 18 57
-25 -17 60 5 -39 3 46 37
44 38 45 -82 2 -47 127 26
52 21 1 18 -23 -94 -30 47
45 8 39 38 -43 5 22 -62
00000000: 1051 c301 4a19 36a7 0c2a d65f 712a 8e9b
00000010: 1b37 123a cb41 10b6 ab30 38e9 2451 0607
00000020: fe01 bdd0 7d47 df5d 9cbe 9a40 e217 7f0e
00000030: 64b0 2bb6 a49d bffe 1b34 b8ef 0c13 22f2
00000040: 1508 4322 1aea 12e0 3a1f dd71 e0ff bbf2
00000050: 0bd4 0747 e30c ac1d 0429 fb1c dd15 0e81
00000060: 0eb4 0cb7 5501 fa24 1a48 f0eb d627 2614
00000070: 01fe 1cad cdbf 1aa5 2836 9438 1108 fdd0
00000080: 11fb d813 f2d2 03b8 a2b4 26bc 3c1b 2c41
00000090: ff0d fe43 397b fb3f b10a f210 e8a4 2021
000000a0: c9ff ebba 8187 15e5 daed f2d7 c1b9 30ee
000000b0: 0730 17f0 082a f401 09e9 fef7 19fb dadc
000000c0: 1c0a 2bfc 3038 cbe7 204a e816 eca3 06d1
000000d0: ee7f f552 ca18 3e05 f2f6 fa09 eaf9 1239
000000e0: e7ef 3c05 d903 2e25 2c26 2dae 02d1 7f1a
000000f0: 3415 0112 e9a2 e22f 2d08 2726 d505 16c2

tfl.pseudo_qconst25 i1 [56, 1, 1, 192]
-23 64 11 -1 -33 20 1 -10
20 -15 -4 -9 -43 16 -66 -95
-78 2 45 17 32 -63 -22 49
-5 11 -35 19 30 -62 -29 -31
22 33 -68 -61 24 -12 14 24
40 -12 3 29 53 -76 -2 31
-17 -6 -35 -21 32 -40 -33 51
7 -20 -19 -11 60 53 16 12
-8 26 -13 -23 -16 -49 1 4
-48 -52 -14 16 -42 2 9 -50
32 -55 10 32 44 1 0 24
-22 20 109 4 63 -11 21 -59
11 53 -57 -23 -6 16 20 -7
-1 50 -5 35 -7 31 2 -45
37 -10 23 -19 -14 -6 -66 -1
-22 -5 34 32 41 2 -26 5
-68 4 27 -1 87 79 55 2
31 -6 24 34 29 -12 -15 91
-7 -12 21 72 -27 -11 41 -33
-53 13 -53 -7 34 -13 0 -21
-56 12 8 -21 -27 -18 -27 -35
5 27 88 18 -1 -74 -44 -33
50 -3 -68 29 50 -56 -127 18
-49 -32 -85 -26 -32 55 -13 -35
27 -22 -1 10 -12 -15 29 19
-1 16 110 -42 7 -39 -90 -19
40 -40 58 13 48 63 -10 43
-41 96 54 14 10 14 -51 8
32 -43 24 -59 -13 -38 5 -51
34 7 -6 -5 -8 50 -55 -66
4 -20 -11 -26 0 -127 -58 73
-41 -35 -23 -16 25 -93 16 87
00000000: e940 0bff df14 01f6 14f1 fcf7 d510 bea1
00000010: b202 2d11 20c1 ea31 fb0b dd13 1ec2 e3e1
00000020: 1621 bcc3 18f4 0e18 28f4 031d 35b4 fe1f
00000030: effa ddeb 20d8 df33 07ec edf5 3c35 100c
00000040: f81a f3e9 f0cf 0104 d0cc f210 d602 09ce
00000050: 20c9 0a20 2c01 0018 ea14 6d04 3ff5 15c5
00000060: 0b35 c7e9 fa10 14f9 ff32 fb23 f91f 02d3
00000070: 25f6 17ed f2fa beff eafb 2220 2902 e605
00000080: bc04 1bff 574f 3702 1ffa 1822 1df4 f15b
00000090: f9f4 1548 e5f5 29df cb0d cbf9 22f3 00eb
000000a0: c80c 08eb e5ee e5dd 051b 5812 ffb6 d4df
000000b0: 32fd bc1d 32c8 8112 cfe0 abe6 e037 f3dd
000000c0: 1bea ff0a f4f1 1d13 ff10 6ed6 07d9 a6ed
000000d0: 28d8 3a0d 303f f62b d760 360e 0a0e cd08
000000e0: 20d5 18c5 f3da 05cd 2207 fafb f832 c9be
000000f0: 04ec f5e6 0081 c649 d7dd e9f0 19a3 1057

tfl.pseudo_qconst27 i1 [1, 3, 3, 192]
86 52 59 -127 70 65 -61 89
81 71 76 67 -93 63 70 -63
-65 19 66 67 -68 -75 68 67
-66 53 58 -77 110 -82 -62 -84
-106 -47 64 77 -95 -69 64 -50
63 -65 74 -94 72 -62 55 70
68 59 -68 -67 55 -65 83 -73
26 78 71 -95 -61 -61 54 59
67 49 -56 66 -68 -68 -53 70
87 -94 76 35 66 -79 -90 -76
55 74 -56 -92 -84 -63 64 -70
55 70 -57 68 67 63 -55 60
-108 56 103 69 71 63 -54 -74
71 -71 -78 -59 68 73 64 -58
67 -54 55 60 -65 58 34 53
68 -97 78 78 -60 -92 83 -122
-53 -117 -58 75 -65 -51 83 67
52 57 49 58 70 70 -107 -77
77 -65 71 63 53 69 70 88
68 -109 73 -56 71 66 -49 79
48 106 71 75 -91 63 -72 50
61 56 77 -60 55 -79 63 60
72 85 69 79 -75 63 85 -88
-69 61 -57 60 63 64 73 39
108 81 83 44 86 90 -71 106
95 93 99 89 -91 86 95 -86
-90 16 92 94 -92 -91 83 93
-89 73 85 -117 116 -111 -92 -112
-127 -64 83 96 -116 -97 96 -77
90 -88 93 -116 100 -83 81 91
93 83 -88 -93 70 -92 104 -94
40 96 99 22 -83 -81 83 83
00000000: 5634 3b81 4641 c359 5147 4c43 a33f 46c1
00000010: bf13 4243 bcb5 4443 be35 3ab3 6eae c2ac
00000020: 96d1 404d a1bb 40ce 3fbf 4aa2 48c2 3746
00000030: 443b bcbd 37bf 53b7 1a4e 47a1 c3c3 363b
00000040: 4331 c842 bcbc cb46 57a2 4c23 42b1 a6b4
00000050: 374a c8a4 acc1 40ba 3746 c744 433f c93c
00000060: 9438 6745 473f cab6 47b9 b2c5 4449 40c6
00000070: 43ca 373c bf3a 2235 449f 4e4e c4a4 5386
00000080: cb8b c64b bfcd 5343 3439 313a 4646 95b3
00000090: 4dbf 473f 3545 4658 4493 49c8 4742 cf4f
000000a0: 306a 474b a53f b832 3d38 4dc4 37b1 3f3c
000000b0: 4855 454f b53f 55a8 bb3d c73c 3f40 4927
000000c0: 6c51 532c 565a b96a 5f5d 6359 a556 5faa
000000d0: a610 5c5e a4a5 535d a749 558b 7491 a490
000000e0: 81c0 5360 8c9f 60b3 5aa8 5d8c 64ad 515b
000000f0: 5d53 a8a3 46a4 68a2 2860 6316 adaf 5353

tfl.pseudo_qconst29 i1 [192, 1, 1, 32]
-21 -7 27 -10 -115 -5 12 -21
-12 117 -56 15 127 41 59 -70
-114 64 15 2 11 -72 84 -7
-72 -53 34 -120 -6 57 8 -5
72 26 66 12 41 43 33 41
-28 49 23 55 22 45 25 37
-20 -53 -57 16 63 91 -7 8
-52 -127 -2 80 27 46 9 47
107 91 8 127 -37 -56 -7 49
-69 37 45 60 51 12 -1 40
-27 -108 -41 32 3 -99 35 -88
23 2 -49 61 -8 -2 -88 -115
13 -17 -13 -47 15 -4 -27 -56
9 -79 28 -79 127 33 78 71
-27 -12 -64 -7 52 -29 67 15
-10 -8 83 22 -31 -34 -53 49
127 -30 50 -16 -4 -66 45 -63
4 34 -24 44 10 -56 27 -40
-5 -29 31 35 22 23 -68 40
20 -71 36 -14 48 -10 -29 76
-20 32 6 -25 28 127 -61 40
41 -1 13 -42 10 50 33 -17
-5 -44 -32 35 -15 -13 -3 20
-29 33 -18 -8 57 55 -47 -46
-17 -30 61 2 -71 8 -8 3
-19 -20 17 27 -9 27 -57 3
-61 38 -20 43 3 37 -72 50
12 78 -127 -46 -21 35 -52 -34
-10 -27 45 127 17 23 -95 -13
-46 -6 -54 18 -8 -6 -44 -24
-10 -2 13 27 7 -12 -32 -89
-30 -2 -13 -23 -43 -1 -68 -13
00000000: ebf9 1bf6 8dfb 0ceb f475 c80f 7f29 3bba
00000010: 8e40 0f02 0bb8 54f9 b8cb 2288 fa39 08fb
00000020: 481a 420c 292b 2129 e431 1737 162d 1925
00000030: eccb c710 3f5b f908 cc81 fe50 1b2e 092f
00000040: 6b5b 087f dbc8 f931 bb25 2d3c 330c ff28
00000050: e594 d720 039d 23a8 1702 cf3d f8fe a88d
00000060: 0def f3d1 0ffc e5c8 09b1 1cb1 7f21 4e47
00000070: e5f4 c0f9 34e3 430f f6f8 5316 e1de cb31
00000080: 7fe2 32f0 fcbe 2dc1 0422 e82c 0ac8 1bd8
00000090: fbe3 1f23 1617 bc28 14b9 24f2 30f6 e34c
000000a0: ec20 06e7 1c7f c328 29ff 0dd6 0a32 21ef
000000b0: fbd4 e023 f1f3 fd14 e321 eef8 3937 d1d2
000000c0: efe2 3d02 b908 f803 edec 111b f71b c703
000000d0: c326 ec2b 0325 b832 0c4e 81d2 eb23 ccde
000000e0: f6e5 2d7f 1117 a1f3 d2fa ca12 f8fa d4e8
000000f0: f6fe 0d1b 07f4 e0a7 e2fe f3e9 d5ff bcf3

tfl.pseudo_qconst31 i1 [32, 1, 1, 192]
35 -76 -54 2 -19 6 -27 -46
0 -21 -13 -27 -39 33 -37 -12
-25 4 -9 29 -4 -3 -49 3
-44 8 -119 -36 -71 -93 9 67
-57 -22 4 17 59 13 -115 -33
15 54 -31 52 -13 25 85 -99
23 -73 -6 -23 44 -8 -30 -20
-54 8 -12 -52 -31 38 -10 4
-49 2 -50 4 12 -11 -33 -18
14 1 7 42 66 -54 -26 12
-16 -1 -11 10 37 -54 3 -5
-15 -26 -5 -36 15 -50 28 -58
72 32 72 -21 -41 45 -79 50
13 -55 -40 -8 -18 42 0 -24
-22 -93 60 -8 39 29 -29 -26
-1 47 -62 -127 -26 -78 -54 10
-101 -28 5 -4 -25 28 -27 -34
-28 30 -16 -1 109 86 -58 75
-19 48 23 -52 -47 16 -41 20
37 21 13 13 -5 45 6 39
-47 -11 -16 10 -11 -6 -1 53
8 -5 -16 -31 -15 -6 33 0
-15 4 0 -22 52 31 60 34
50 46 24 -1 -13 18 -78 25
-7 1 -15 17 12 -16 0 7
-13 -39 26 -75 -14 3 -5 3
-55 -14 -15 19 -7 -29 100 -32
32 12 -21 57 2 -5 28 16
-36 30 18 14 -13 11 -26 -38
9 0 21 -16 45 -20 28 -11
-4 6 -2 71 -51 -12 -56 26
9 42 -4 9 -15 -22 -64 24
00000000: 23b4 ca02 ed06 e5d2 00eb f3e5 d921 dbf4
00000010: e704 f71d fcfd cf03 d408 89dc b9a3 0943
00000020: c7ea 0411 3b0d 8ddf 0f36 e134 f319 559d
00000030: 17b7 fae9 2cf8 e2ec ca08 f4cc e126 f604
00000040: cf02 ce04 0cf5 dfee 0e01 072a 42ca e60c
00000050: f0ff f50a 25ca 03fb f1e6 fbdc 0fce 1cc6
00000060: 4820 48eb d72d b132 0dc9 d8f8 ee2a 00e8
00000070: eaa3 3cf8 271d e3e6 ff2f c281 e6b2 ca0a
00000080: 9be4 05fc e71c e5de e41e f0ff 6d56 c64b
00000090: ed30 17cc d110 d714 2515 0d0d fb2d 0627
000000a0: d1f5 f00a f5fa ff35 08fb f0e1 f1fa 2100
000000b0: f104 00ea 341f 3c22 322e 18ff f312 b219
000000c0: f901 f111 0cf0 0007 f3d9 1ab5 f203 fb03
000000d0: c9f2 f113 f9e3 64e0 200c eb39 02fb 1c10
000000e0: dc1e 120e f30b e6da 0900 15f0 2dec 1cf5
000000f0: fc06 fe47 cdf4 c81a 092a fc09 f1ea c018

tfl.pseudo_qconst33 i1 [1, 3, 3, 192]
5 -16 0 -103 48 23 2 36
105 11 4 21 44 71 -2 -26
51 -17 44 -1 54 -126 23 6
-32 -13 41 -16 46 -18 66 22
0 -23 -2 9 20 -104 -40 49
20 7 5 105 -40 -20 -32 -9
88 3 14 -78 -67 15 19 -126
23 18 26 17 64 -12 -22 26
-16 84 2 -15 31 -95 89 -18
127 9 56 48 20 29 13 -51
-22 25 -25 104 -1 -54 -28 -13
49 -127 27 22 -34 -10 -38 50
22 32 51 -24 -19 81 33 -68
-7 73 11 -5 17 -58 8 107
-115 -79 41 -45 14 17 -127 -45
-3 25 -35 21 24 -18 -3 32
58 -124 50 11 96 24 51 54
-63 -51 -83 -82 -12 23 35 -64
3 26 -9 73 -19 -15 91 10
-127 63 -98 53 -5 23 -61 28
-48 48 -24 -46 4 -80 23 37
58 61 -37 -27 -45 -30 16 -26
-32 -45 11 -1 5 22 60 -112
13 -77 26 39 3 -20 -20 -64
-38 127 103 -127 -27 3 -45 48
53 127 -3 42 127 127 -127 -78
113 -18 115 127 51 -28 39 28
39 -71 127 127 40 72 -28 127
-20 56 -23 36 -2 -109 -78 82
35 -18 2 -2 -58 127 -42 13
-23 -26 127 -61 -127 76 55 77
48 117 -87 0 95 -54 -27 83
00000000: 05f0 0099 3017 0224 690b 0415 2c47 fee6
00000010: 33ef 2cff 3682 1706 e0f3 29f0 2eee 4216
00000020: 00e9 fe09 1498 d831 1407 0569 d8ec e0f7
00000030: 5803 0eb2 bd0f 1382 1712 1a11 40f4 ea1a
00000040: f054 02f1 1fa1 59ee 7f09 3830 141d 0dcd
00000050: ea19 e768 ffca e4f3 3181 1b16 def6 da32
00000060: 1620 33e8 ed51 21bc f949 0bfb 11c6 086b
00000070: 8db1 29d3 0e11 81d3 fd19 dd15 18ee fd20
00000080: 3a84 320b 6018 3336 c1cd adae f417 23c0
00000090: 031a f749 edf1 5b0a 813f 9e35 fb17 c31c
000000a0: d030 e8d2 04b0 1725 3a3d dbe5 d3e2 10e6
000000b0: e0d3 0bff 0516 3c90 0db3 1a27 03ec ecc0
000000c0: da7f 6781 e503 d330 357f fd2a 7f7f 81b2
000000d0: 71ee 737f 33e4 271c 27b9 7f7f 2848 e47f
000000e0: ec38 e924 fe93 b252 23ee 02fe c67f d60d
000000f0: e9e6 7fc3 814c 374d 3075 a900 5fca e553

tfl.pseudo_qconst35 i1 [192, 1, 1, 32]
9 4 109 2 -73 -27 0 42
73 34 -17 -28 3 -1 30 -21
80 -25 41 22 105 43 -6 -21
-19 20 32 -127 -24 22 -1 -42
51 8 46 -87 -77 -59 73 8
88 0 39 -88 104 66 42 -73
14 -20 5 6 72 127 35 -17
-31 -26 -17 -97 -31 10 35 -16
83 49 22 -76 120 67 -41 71
-127 36 64 58 14 0 50 -15
87 65 44 -9 83 110 9 -73
-80 -10 47 -94 -85 -11 -1 -13
25 -18 41 -31 43 -26 -17 77
72 -124 10 88 -71 -1 -65 14
-60 47 71 -127 -54 78 -25 -32
-18 60 -90 -86 9 1 -13 -61
10 13 -12 13 38 10 -7 -54
-51 16 -3 -17 39 20 11 19
3 -4 -19 -11 127 -17 -23 2
14 10 63 90 3 -15 -39 38
-13 -68 14 6 32 11 85 -6
30 -60 -34 -43 65 66 -23 113
-40 91 73 33 24 -26 10 32
6 121 58 -26 -55 -30 -127 2
-13 -65 -96 17 -127 -24 21 9
-14 57 -23 -49 78 64 62 -1
-120 76 18 56 38 -61 39 -21
-116 126 -56 -67 5 43 -7 41
-56 24 17 41 127 -30 -13 -9
49 22 -24 27 -18 -6 -44 16
-79 23 18 -15 16 25 -43 -24
102 20 -13 -40 -14 4 12 -22
00000000: 0904 6d02 b7e5 002a 4922 efe4 03ff 1eeb
00000010: 50e7 2916 692b faeb ed14 2081 e816 ffd6
00000020: 3308 2ea9 b3c5 4908 5800 27a8 6842 2ab7
00000030: 0eec 0506 487f 23ef e1e6 ef9f e10a 23f0
00000040: 5331 16b4 7843 d747 8124 403a 0e00 32f1
00000050: 5741 2cf7 536e 09b7 b0f6 2fa2 abf5 fff3
00000060: 19ee 29e1 2be6 ef4d 4884 0a58 b9ff bf0e
00000070: c42f 4781 ca4e e7e0 ee3c a6aa 0901 f3c3
00000080: 0a0d f40d 260a f9ca cd10 fdef 2714 0b13
00000090: 03fc edf5 7fef e902 0e0a 3f5a 03f1 d926
000000a0: f3bc 0e06 200b 55fa 1ec4 ded5 4142 e971
000000b0: d85b 4921 18e6 0a20 0679 3ae6 c9e2 8102
000000c0: f3bf a011 81e8 1509 f239 e9cf 4e40 3eff
000000d0: 884c 1238 26c3 27eb 8c7e c8bd 052b f929
000000e0: c818 1129 7fe2 f3f7 3116 e81b eefa d410
000000f0: b117 12f1 1019 d5e8 6614 f3d8 f204 0cea

tfl.pseudo_qconst37 i1 [32, 1, 1, 192]
22 32 -35 14 -1 37 -43 18
-13 21 9 16 -15 25 40 60
52 44 25 -56 32 -20 44 -34
-26 -75 -37 68 4 -43 2 -46
2 -21 20 -13 9 -6 12 78
44 -12 -35 -13 21 -10 7 36
-41 -32 -48 27 -20 54 -28 38
42 -48 -6 -83 -49 -37 -18 26
-52 34 -11 -44 -79 73 -38 77
-14 -31 -10 -16 4 41 55 20
32 127 42 68 -2 -69 73 9
12 -50 44 -75 6 14 57 15
-10 -32 32 10 -10 -8 -10 -11
-28 70 11 7 21 29 -29 20
35 -29 20 6 -78 35 -24 63
-90 20 -3 73 -59 -32 -22 -22
-16 -49 32 10 -56 -8 -32 42
4 53 -12 31 29 78 -10 -31
-74 -15 7 96 -40 -76 -12 2
1 -62 -24 62 14 76 46 8
30 -13 27 3 -41 31 41 46
-8 -24 13 -4 5 -4 76 1
61 -17 -49 44 -15 -19 109 15
-59 -12 31 73 10 34 30 14
-20 -2 -26 40 28 9 -21 -6
22 -66 25 4 49 3 22 -77
-63 9 27 -106 11 -2 -4 32
-51 -51 -40 -8 -44 121 -40 53
29 -5 24 -21 8 55 -5 -1
-13 30 -23 11 -54 -22 -21 -14
33 -22 11 -46 41 23 -3 -99
42 -10 13 47 4 2 -16 13
00000000: 1620 dd0e ff25 d512 f315 0910 f119 283c
00000010: 342c 19c8 20ec 2cde e6b5 db44 04d5 02d2
00000020: 02eb 14f3 09fa 0c4e 2cf4 ddf3 15f6 0724
00000030: d7e0 d01b ec36 e426 2ad0 faad cfdb ee1a
00000040: cc22 f5d4 b149 da4d f2e1 f6f0 0429 3714
00000050: 207f 2a44 febb 4909 0cce 2cb5 060e 390f
00000060: f6e0 200a f6f8 f6f5 e446 0b07 151d e314
00000070: 23e3 1406 b223 e83f a614 fd49 c5e0 eaea
00000080: f0cf 200a c8f8 e02a 0435 f41f 1d4e f6e1
00000090: b6f1 0760 d8b4 f402 01c2 e83e 0e4c 2e08
000000a0: 1ef3 1b03 d71f 292e f8e8 0dfc 05fc 4c01
000000b0: 3def cf2c f1ed 6d0f c5f4 1f49 0a22 1e0e
000000c0: ecfe e628 1c09 ebfa 16be 1904 3103 16b3
000000d0: c109 1b96 0bfe fc20 cdcd d8f8 d479 d835
000000e0: 1dfb 18eb 0837 fbff f31e e90b caea ebf2
000000f0: 21ea 0bd2 2917 fd9d 2af6 0d2f 0402 f00d

tfl.pseudo_qconst39 i1 [1, 3, 3, 192]
22 11 -5 21 -89 8 34 37
-104 65 48 127 67 -79 -24 32
-6 -105 127 -127 -41 4 -6 -25
-77 66 18 12 -36 -35 -61 29
-57 26 40 38 5 17 -50 -8
127 -50 -1 39 -1 -17 24 -7
56 -18 0 2 -82 26 86 46
59 -26 0 66 77 94 100 18
8 -67 -31 30 14 37 -59 -3
50 2 31 31 25 -29 -80 127
46 -37 -101 -112 -127 7 -58 70
-54 6 -18 9 -5 -79 -78 33
80 -80 26 1 -3 7 95 -73
95 50 -13 -4 80 113 9 -83
-9 57 1 5 13 50 -110 24
-44 35 13 -39 0 -5 23 -58
4 -19 9 -42 41 80 71 -64
56 -29 127 -1 -37 26 -44 46
57 -25 -16 51 12 76 -10 -18
-112 -72 -25 -127 -32 -33 -69 -23
-75 -17 -75 46 -4 22 8 -19
57 72 -2 -25 89 -41 -21 -11
22 -80 -67 -1 35 -80 11 -25
20 -7 0 64 -24 -72 76 1
-59 53 -1 -127 -63 127 -31 -32
-127 69 21 -127 127 13 -127 127
127 -105 44 -121 -111 -17 -18 -72
-110 127 127 34 -36 -39 -70 127
127 127 94 34 -55 54 48 -38
-124 -127 4 127 -15 -73 -16 -62
127 -42 -58 127 -13 27 67 10
63 -122 127 102 127 -91 127 -41
00000000: 160b fb15 a708 2225 9841 307f 43b1 e820
00000010: fa97 7f81 d704 fae7 b342 120c dcdd c31d
00000020: c71a 2826 0511 cef8 7fce ff27 ffef 18f9
00000030: 38ee 0002 ae1a 562e 3be6 0042 4d5e 6412
00000040: 08bd e11e 0e25 c5fd 3202 1f1f 19e3 b07f
00000050: 2edb 9b90 8107 c646 ca06 ee09 fbb1 b221
00000060: 50b0 1a01 fd07 5fb7 5f32 f3fc 5071 09ad
00000070: f739 0105 0d32 9218 d423 0dd9 00fb 17c6
00000080: 04ed 09d6 2950 47c0 38e3 7fff db1a d42e
00000090: 39e7 f033 0c4c f6ee 90b8 e781 e0df bbe9
000000a0: b5ef b52e fc16 08ed 3948 fee7 59d7 ebf5
000000b0: 16b0 bdff 23b0 0be7 14f9 0040 e8b8 4c01
000000c0: c535 ff81 c17f e1e0 8145 1581 7f0d 817f
000000d0: 7f97 2c87 91ef eeb8 927f 7f22 dcd9 ba7f
000000e0: 7f7f 5e22 c936 30da 8481 047f f1b7 f0c2
000000f0: 7fd6 c67f f31b 430a 3f86 7f66 7fa5 7fd7

tfl.pseudo_qconst41 i1 [192, 1, 1, 32]
46 30 84 -14 42 -13 -63 -69
-86 -92 65 -11 16 -28 -1 -36
127 -78 -112 17 -27 40 -44 -6
91 -56 -78 59 78 -21 68 71
-15 -3 -28 32 -6 -14 36 36
41 39 -51 -39 9 21 46 32
-84 127 54 -31 38 -30 5 -22
-101 15 90 -32 -48 -7 -33 -53
-21 25 43 -48 10 -49 25 127
81 -54 108 -22 -75 84 20 9
41 71 34 -85 -6 -72 4 98
62 -113 -25 16 28 -13 91 -97
-69 32 -4 -47 -34 -9 16 35
85 -73 -24 127 -92 -60 -31 -40
115 -2 121 3 2 -57 7 41
-21 76 -31 -57 -35 -58 -2 -51
-23 -79 -65 24 -6 51 -30 77
1 54 3 -35 -85 -35 -35 45
50 -32 -6 127 7 -78 3 -30
11 12 32 46 -1 -65 25 19
-72 3 77 61 63 10 -26 34
8 3 6 -85 -36 -97 127 8
-63 -25 -37 -9 -12 -45 47 99
-4 -9 13 27 62 -10 -43 -38
70 -23 -43 -5 -9 -23 -28 -61
-57 -17 11 -22 -13 18 -42 114
-61 54 -40 4 -25 -35 -44 88
43 127 -29 9 -12 -16 -96 39
3 1 -27 31 -4 -7 -49 127
51 10 9 -13 7 -17 14 -31
29 -21 -21 -26 -38 -6 -19 -40
83 -105 -14 2 13 41 86 -16
00000000: 2e1e 54f2 2af3 c1bb aaa4 41f5 10e4 ffdc
00000010: 7fb2 9011 e528 d4fa 5bc8 b23b 4eeb 4447
00000020: f1fd e420 faf2 2424 2927 cdd9 0915 2e20
00000030: ac7f 36e1 26e2 05ea 9b0f 5ae0 d0f9 dfcb
00000040: eb19 2bd0 0acf 197f 51ca 6cea b554 1409
00000050: 2947 22ab fab8 0462 3e8f e710 1cf3 5b9f
00000060: bb20 fcd1 def7 1023 55b7 e87f a4c4 e1d8
00000070: 73fe 7903 02c7 0729 eb4c e1c7 ddc6 fecd
00000080: e9b1 bf18 fa33 e24d 0136 03dd abdd dd2d
00000090: 32e0 fa7f 07b2 03e2 0b0c 202e ffbf 1913
000000a0: b803 4d3d 3f0a e622 0803 06ab dc9f 7f08
000000b0: c1e7 dbf7 f4d3 2f63 fcf7 0d1b 3ef6 d5da
000000c0: 46e9 d5fb f7e9 e4c3 c7ef 0bea f312 d672
000000d0: c336 d804 e7dd d458 2b7f e309 f4f0 a027
000000e0: 0301 e51f fcf9 cf7f 330a 09f3 07ef 0ee1
000000f0: 1deb ebe6 dafa edd8 5397 f202 0d29 56f0

tfl.pseudo_qconst43 i1 [32, 1, 1, 144]
-5 22 48 14 -28 -19 -40 23
-88 18 54 51 -20 8 6 21
-6 -25 -51 -2 -60 -9 -1 -38
5 -58 14 -16 22 14 12 40
-8 -18 8 11 16 -54 -17 7
78 -14 6 -1 36 1 18 -2
28 31 4 7 55 -35 -1 51
-42 -10 68 -2 22 -36 -5 77
45 -7 46 -17 77 46 -2 77
-1 94 12 -6 -40 -23 12 7
-26 -68 42 -3 -38 -55 -12 39
-11 15 16 -10 3 12 40 -7
-10 6 53 12 32 -17 34 -16
23 -34 50 -27 -23 -38 -10 -11
27 -55 9 4 16 11 -127 57
32 -15 -6 1 -31 21 37 -28
5 2 7 -19 17 -17 14 68
-12 11 -18 -43 19 53 -64 14
50 -39 -69 11 -124 1 -95 52
0 -21 -98 51 54 89 3 42
-70 23 -10 14 -28 113 52 17
-27 121 10 9 -30 -29 56 -92
6 46 -26 -36 -8 -3 -52 -3
1 -15 52 63 25 -14 -93 38
-44 22 -54 24 43 35 -38 -71
-12 80 59 18 -95 2 3 -42
8 22 -37 -8 -2 -36 20 72
46 -21 -40 19 -5 47 -4 -16
-3 51 -46 52 -34 -72 26 17
-48 63 -51 -11 2 13 -120 53
-29 -44 15 55 -6 -34 34 18
68 -109 44 -15 -15 -32 -18 12
00000000: fb16 300e e4ed d817 a812 3633 ec08 0615
00000010: fae7 cdfe c4f7 ffda 05c6 0ef0 160e 0c28
00000020: f8ee 080b 10ca ef07 4ef2 06ff 2401 12fe
00000030: 1c1f 0407 37dd ff33 d6f6 44fe 16dc fb4d
00000040: 2df9 2eef 4d2e fe4d ff5e 0cfa d8e9 0c07
00000050: e6bc 2afd dac9 f427 f50f 10f6 030c 28f9
00000060: f606 350c 20ef 22f0 17de 32e5 e9da f6f5
00000070: 1bc9 0904 100b 8139 20f1 fa01 e115 25e4
00000080: 0502 07ed 11ef 0e44 f40b eed5 1335 c00e
00000090: 32d9 bb0b 8401 a134 00eb 9e33 3659 032a
000000a0: ba17 f60e e471 3411 e579 0a09 e2e3 38a4
000000b0: 062e e6dc f8fd ccfd 01f1 343f 19f2 a326
000000c0: d416 ca18 2b23 dab9 f450 3b12 a102 03d6
000000d0: 0816 dbf8 fedc 1448 2eeb d813 fb2f fcf0
000000e0: fd33 d234 deb8 1a11 d03f cdf5 020d 8835
000000f0: e3d4 0f37 fade 2212 4493 2cf1 f1e0 ee0c

tfl.pseudo_qconst45 i1 [1, 3, 3, 144]
-9 -3 -20 -31 10 37 -2 20
45 -30 -9 -8 7 3 1 -5
-60 -7 -36 29 13 -17 -5 -21
7 11 -63 8 -71 -26 42 22
16 27 30 -84 -103 -17 -89 5
-17 -9 -12 12 -17 18 -6 1
-3 -127 -18 -11 -8 35 -21 2
0 -21 3 0 -19 -78 38 39
57 -3 3 -39 11 7 -47 13
-24 -4 0 -69 -127 -50 16 12
-22 -26 5 3 1 0 33 -67
22 -19 39 3 34 14 16 3
-11 -74 -32 -5 -32 3 8 -1
12 13 -13 90 5 8 -21 -53
12 20 -20 -38 -7 -38 31 -6
-35 -7 54 -4 28 -19 2 34
59 9 11 34 -21 22 -32 23
17 -22 -17 -9 3 -5 -127 -63
24 34 12 -62 20 -33 -68 60
127 -23 -44 -11 26 13 26 24
-127 25 11 44 8 -33 6 -11
-55 7 14 -32 6 -106 -53 35
12 118 127 -118 -72 15 1 49
-43 -21 2 -21 -84 -8 20 11
-1 -123 50 22 19 -7 -9 37
-2 -42 19 49 -61 -26 82 66
2 -56 4 -31 6 51 -65 30
19 81 29 -127 -45 -52 66 36
40 1 59 -52 -48 -46 110 27
27 -33 25 63 -97 11 -23 -5
-6 -102 -68 -31 -50 59 22 -1
36 51 -23 48 -3 -116 -86 -4
00000000: f7fd ece1 0a25 fe14 2de2 f7f8 0703 01fb
00000010: c4f9 dc1d 0def fbeb 070b c108 b9e6 2a16
00000020: 101b 1eac 99ef a705 eff7 f40c ef12 fa01
00000030: fd81 eef5 f823 eb02 00eb 0300 edb2 2627
00000040: 39fd 03d9 0b07 d10d e8fc 00bb 81ce 100c
00000050: eae6 0503 0100 21bd 16ed 2703 220e 1003
00000060: f5b6 e0fb e003 08ff 0c0d f35a 0508 ebcb
00000070: 0c14 ecda f9da 1ffa ddf9 36fc 1ced 0222
00000080: 3b09 0b22 eb16 e017 11ea eff7 03fb 81c1
00000090: 1822 0cc2 14df bc3c 7fe9 d4f5 1a0d 1a18
000000a0: 8119 0b2c 08df 06f5 c907 0ee0 0696 cb23
000000b0: 0c76 7f8a b80f 0131 d5eb 02eb acf8 140b
000000c0: ff85 3216 13f9 f725 fed6 1331 c3e6 5242
000000d0: 02c8 04e1 0633 bf1e 1351 1d81 d3cc 4224
000000e0: 2801 3bcc d0d2 6e1b 1bdf 193f 9f0b e9fb
000000f0: fa9a bce1 ce3b 16ff 2433 e930 fd8c aafc

tfl.pseudo_qconst47 i1 [144, 1, 1, 24]
18 35 -5 38 9 24 19 -127
-61 45 48 -21 3 36 -28 19
50 -32 -80 8 28 70 -40 55
53 -28 127 11 -3 16 -9 14
-30 7 14 -4 43 12 -7 23
18 -31 -61 -29 -24 22 -11 11
118 127 29 11 -82 22 75 -37
-10 -71 -57 8 -126 -100 -26 -8
31 -29 -13 -43 -50 -105 28 39
49 -4 -26 6 32 -127 29 54
48 48 83 43 105 -95 31 45
58 29 -13 -3 -29 78 -28 75
20 30 5 -104 -39 -11 -9 10
27 46 127 6 8 16 56 -1
-39 85 -51 -103 -70 -3 -5 -37
44 -23 -5 -46 -92 33 112 -7
32 40 55 -22 -127 -14 -72 -79
-92 -125 18 66 -33 -3 -18 -44
-127 24 116 -19 43 -13 -9 -3
90 -1 -22 -11 14 -16 37 -16
-15 25 -48 45 23 -1 -4 6
10 -9 -11 7 -1 10 -36 11
5 -19 25 55 4 9 -48 -127
73 63 -7 16 -25 -17 -43 15
59 -47 18 49 69 -20 -7 9
-94 -16 24 10 -43 0 66 -9
43 61 -127 -82 -33 51 82 81
15 -36 0 -36 -39 -25 22 -13
20 15 -6 -38 15 0 -13 -26
18 -7 -7 53 -14 27 127 10
-1 1 -8 18 -102 -4 -45 -4
-9 13 6 -13 17 12 26 -20
00000000: 1223 fb26 0918 1381 c32d 30eb 0324 e413
00000010: 32e0 b008 1c46 d837 35e4 7f0b fd10 f70e
00000020: e207 0efc 2b0c f917 12e1 c3e3 e816 f50b
00000030: 767f 1d0b ae16 4bdb f6b9 c708 829c e6f8
00000040: 1fe3 f3d5 ce97 1c27 31fc e606 2081 1d36
00000050: 3030 532b 69a1 1f2d 3a1d f3fd e34e e44b
00000060: 141e 0598 d9f5 f70a 1b2e 7f06 0810 38ff
00000070: d955 cd99 bafd fbdb 2ce9 fbd2 a421 70f9
00000080: 2028 37ea 81f2 b8b1 a483 1242 dffd eed4
00000090: 8118 74ed 2bf3 f7fd 5aff eaf5 0ef0 25f0
000000a0: f119 d02d 17ff fc06 0af7 f507 ff0a dc0b
000000b0: 05ed 1937 0409 d081 493f f910 e7ef d50f
000000c0: 3bd1 1231 45ec f909 a2f0 180a d500 42f7
000000d0: 2b3d 81ae df33 5251 0fdc 00dc d9e7 16f3
000000e0: 140f fada 0f00 f3e6 12f9 f935 f21b 7f0a
000000f0: ff01 f812 9afc d3fc f70d 06f3 110c 1aec

tfl.pseudo_qconst49 i1 [24, 1, 1, 144]
39 -20 5 -1 -11 10 7 -30
-43 39 6 -1 10 -25 45 6
-12 17 61 18 19 2 -6 5
-17 49 8 -51 -20 1 -39 8
24 -3 -10 -28 32 -5 50 38
-20 -12 -49 -24 -4 -20 -1 -2
13 12 -12 -25 -21 -4 -11 25
-12 -18 2 -21 9 32 -36 -19
44 36 -6 -21 22 -31 69 1
-21 28 -7 -10 55 2 -10 -28
7 18 -18 17 21 -2 -2 -80
17 -4 -8 3 -4 4 66 3
40 9 -14 12 9 1 -10 16
0 4 -6 2 45 32 -3 1
9 -127 24 -49 34 -4 13 -3
41 -11 -9 76 14 23 -43 17
6 25 4 29 5 42 38 13
1 3 -15 -13 -55 23 18 -4
-30 74 -9 -21 -59 19 21 -43
-40 -74 -52 -21 4 -68 71 23
-103 34 39 32 -3 -8 -52 12
-46 22 35 51 -93 -42 -71 22
40 2 -41 -63 -14 -29 -7 -22
-6 -74 -27 38 25 -13 39 -104
27 -53 -25 -76 13 -47 3 -23
-31 -32 7 41 4 8 -12 -68
127 67 -34 -14 44 -36 19 -114
3 115 4 -43 -2 25 65 -38
20 19 -2 -6 -63 25 -55 -120
69 50 -15 61 77 30 -24 71
-29 28 -59 43 55 -66 -62 63
-44 -22 -48 -66 57 -6 -5 -45
00000000: 27ec 05ff f50a 07e2 d527 06ff 0ae7 2d06
00000010: f411 3d12 1302 fa05 ef31 08cd ec01 d908
00000020: 18fd f6e4 20fb 3226 ecf4 cfe8 fcec fffe
00000030: 0d0c f4e7 ebfc f519 f4ee 02eb 0920 dced
00000040: 2c24 faeb 16e1 4501 eb1c f9f6 3702 f6e4
00000050: 0712 ee11 15fe feb0 11fc f803 fc04 4203
00000060: 2809 f20c 0901 f610 0004 fa02 2d20 fd01
00000070: 0981 18cf 22fc 0dfd 29f5 f74c 0e17 d511
00000080: 0619 041d 052a 260d 0103 f1f3 c917 12fc
00000090: e24a f7eb c513 15d5 d8b6 cceb 04bc 4717
000000a0: 9922 2720 fdf8 cc0c d216 2333 a3d6 b916
000000b0: 2802 d7c1 f2e3 f9ea fab6 e526 19f3 2798
000000c0: 1bcb e7b4 0dd1 03e9 e1e0 0729 0408 f4bc
000000d0: 7f43 def2 2cdc 138e 0373 04d5 fe19 41da
000000e0: 1413 fefa c119 c988 4532 f13d 4d1e e847
000000f0: e31c c52b 37be c23f d4ea d0be 39fa fbd3

tfl.pseudo_qconst51 i1 [1, 3, 3, 144]
51 -59 -22 12 34 -4 -12 117
29 59 127 16 -23 22 -85 40
1 7 -21 30 31 28 2 -6
15 16 -4 5 29 29 -29 -25
-10 -9 9 4 52 -39 -6 -28
19 6 17 -40 50 -68 -16 35
-58 44 -121 -7 37 -112 3 -1
1 -9 19 -49 12 20 -15 -20
-5 22 61 13 9 -98 14 -15
34 49 32 3 -20 -1 39 17
-11 -36 23 -2 -9 14 -5 4
-10 21 -25 -13 2 0 -18 13
-75 10 -10 -3 25 12 9 -11
39 -10 80 11 -8 -10 23 49
-21 -20 44 44 -4 8 -29 39
7 -51 7 13 9 55 14 7
127 31 -7 -95 28 -13 -32 78
22 20 75 -104 23 88 64 23
-23 -59 -12 127 21 -8 21 12
45 63 -12 127 -77 -28 26 42
65 -3 -34 93 39 -15 127 8
127 60 29 -9 21 40 -102 15
-43 -15 17 -1 -34 -26 -16 -83
106 12 20 -50 4 66 -17 81
-25 -15 -85 0 36 -77 110 -13
-37 9 -4 41 -20 17 -32 -16
-117 57 11 95 11 -63 13 -127
-62 12 -96 43 -115 -14 22 94
-104 -71 25 10 -32 94 -65 -10
-71 72 -55 -98 -4 -3 -57 15
-12 16 9 -31 35 25 -51 -68
127 -73 -62 15 127 -127 58 10
00000000: 33c5 ea0c 22fc f475 1d3b 7f10 e916 ab28
00000010: 0107 eb1e 1f1c 02fa 0f10 fc05 1d1d e3e7
00000020: f6f7 0904 34d9 fae4 1306 11d8 32bc f023
00000030: c62c 87f9 2590 03ff 01f7 13cf 0c14 f1ec
00000040: fb16 3d0d 099e 0ef1 2231 2003 ecff 2711
00000050: f5dc 17fe f70e fb04 f615 e7f3 0200 ee0d
00000060: b50a f6fd 190c 09f5 27f6 500b f8f6 1731
00000070: ebec 2c2c fc08 e327 07cd 070d 0937 0e07
00000080: 7f1f f9a1 1cf3 e04e 1614 4b98 1758 4017
00000090: e9c5 f47f 15f8 150c 2d3f f47f b3e4 1a2a
000000a0: 41fd de5d 27f1 7f08 7f3c 1df7 1528 9a0f
000000b0: d5f1 11ff dee6 f0ad 6a0c 14ce 0442 ef51
000000c0: e7f1 ab00 24b3 6ef3 db09 fc29 ec11 e0f0
000000d0: 8b39 0b5f 0bc1 0d81 c20c a02b 8df2 165e
000000e0: 98b9 190a e05e bff6 b948 c99e fcfd c70f
000000f0: f410 09e1 2319 cdbc 7fb7 c20f 7f81 3a0a

tfl.pseudo_qconst53 i1 [144, 1, 1, 24]
69 94 -95 127 -98 -12 -50 17
-27 -53 47 32 -5 -15 -49 24
-20 -98 -50 -71 68 3 0 93
-127 -5 64 -31 -8 15 16 2
-16 21 5 32 35 20 6 -4
-5 38 23 39 45 11 -5 -1
-126 4 73 -82 61 -12 96 -98
100 39 -34 26 40 127 43 -26
-10 111 12 37 5 -31 9 1
51 16 40 -1 97 99 22 5
21 74 90 57 127 -37 33 -17
-7 -8 99 -11 31 33 52 27
37 -11 -75 -71 -11 -28 42 -6
11 32 127 -83 -17 20 22 22
1 5 20 -77 25 -3 30 -43
25 -127 -15 -51 -5 -50 96 20
2 25 -74 100 48 25 38 -71
-37 -14 -11 -10 -11 31 -24 33
-7 -5 8 2 -14 -1 -18 -11
-10 -8 -6 -15 -13 -127 0 -10
-19 0 45 6 -10 -41 5 -18
-69 -38 -14 14 -14 28 -44 127
-9 -1 40 -9 7 -8 -27 34
21 13 -12 9 9 42 19 -42
20 83 -14 9 -65 -26 124 -7
33 -126 0 -23 127 -28 11 6
-10 -32 -10 -61 54 -42 26 -53
-127 -16 -85 -19 -83 -18 -10 -9
-11 -58 29 -28 -93 0 -27 -6
31 37 -28 -29 -10 9 -18 -57
-10 -49 18 3 32 1 -15 -6
-56 -26 -27 3 -20 13 56 11
00000000: 455e a17f 9ef4 ce11 e5cb 2f20 fbf1 cf18
00000010: ec9e ceb9 4403 005d 81fb 40e1 f80f 1002
00000020: f015 0520 2314 06fc fb26 1727 2d0b fbff
00000030: 8204 49ae 3df4 609e 6427 de1a 287f 2be6
00000040: f66f 0c25 05e1 0901 3310 28ff 6163 1605
00000050: 154a 5a39 7fdb 21ef f9f8 63f5 1f21 341b
00000060: 25f5 b5b9 f5e4 2afa 0b20 7fad ef14 1616
00000070: 0105 14b3 19fd 1ed5 1981 f1cd fbce 6014
00000080: 0219 b664 3019 26b9 dbf2 f5f6 f51f e821
00000090: f9fb 0802 f2ff eef5 f6f8 faf1 f381 00f6
000000a0: ed00 2d06 f6d7 05ee bbda f20e f21c d47f
000000b0: f7ff 28f7 07f8 e522 150d f409 092a 13d6
000000c0: 1453 f209 bfe6 7cf9 2182 00e9 7fe4 0b06
000000d0: f6e0 f6c3 36d6 1acb 81f0 abed adee f6f7
000000e0: f5c6 1de4 a300 e5fa 1f25 e4e3 f609 eec7
000000f0: f6cf 1203 2001 f1fa c8e6 e503 ec0d 380b

tfl.pseudo_qconst55 i1 [24, 1, 1, 144]
8 7 19 -51 14 -1 8 21
-43 -22 -14 19 20 25 -5 10
15 -23 21 -13 29 42 24 -20
-2 21 -17 -10 1 -17 -72 -25
-21 -8 1 4 -12 7 45 -21
-11 -4 3 6 10 32 5 7
0 3 -14 -4 4 4 -24 -38
51 -11 22 -2 -2 24 -10 16
7 11 -15 -28 -9 -28 65 8
-35 4 8 -10 -7 -16 0 -9
-1 13 -17 19 -4 -4 -27 11
23 13 -5 15 15 1 -127 4
51 -6 -13 11 1 -11 8 7
-5 1 -23 25 6 -2 13 40
-23 -17 8 26 10 -5 2 -24
-31 4 1 -57 0 -16 1 12
24 -1 1 -2 -47 32 -8 1
32 -10 1 12 -4 -22 4 27
32 -78 38 -44 68 -63 -32 54
-22 -107 -13 -7 -25 -18 18 23
67 -100 -21 -22 53 -33 -1 14
-75 23 16 22 -27 -9 73 -39
73 -13 38 -73 38 22 -32 54
-4 -93 -5 -19 -25 -23 -50 -28
-77 -15 -14 -26 0 -71 -23 4
5 37 -99 -10 -5 -64 28 3
0 -45 -47 -13 2 -125 11 34
-16 41 16 -127 -28 -26 -13 23
-23 30 12 45 37 -68 28 -37
52 -57 -116 -78 -17 -15 58 52
-37 16 10 35 10 -110 17 14
-18 49 -43 29 41 -6 -36 36
00000000: 0807 13cd 0eff 0815 d5ea f213 1419 fb0a
00000010: 0fe9 15f3 1d2a 18ec fe15 eff6 01ef b8e7
00000020: ebf8 0104 f407 2deb f5fc 0306 0a20 0507
00000030: 0003 f2fc 0404 e8da 33f5 16fe fe18 f610
00000040: 070b f1e4 f7e4 4108 dd04 08f6 f9f0 00f7
00000050: ff0d ef13 fcfc e50b 170d fb0f 0f01 8104
00000060: 33fa f30b 01f5 0807 fb01 e919 06fe 0d28
00000070: e9ef 081a 0afb 02e8 e104 01c7 00f0 010c
00000080: 18ff 01fe d120 f801 20f6 010c fcea 041b
00000090: 20b2 26d4 44c1 e036 ea95 f3f9 e7ee 1217
000000a0: 439c ebea 35df ff0e b517 1016 e5f7 49d9
000000b0: 49f3 26b7 2616 e036 fca3 fbed e7e9 cee4
000000c0: b3f1 f2e6 00b9 e904 0525 9df6 fbc0 1c03
000000d0: 00d3 d1f3 0283 0b22 f029 1081 e4e6 f317
000000e0: e91e 0c2d 25bc 1cdb 34c7 8cb2 eff1 3a34
000000f0: db10 0a23 0a92 110e ee31 d51d 29fa dc24

tfl.pseudo_qconst57 i1 [1, 3, 3, 144]
6 -59 63 21 -13 36 34 12
5 20 -1 43 -4 -17 30 44
69 -23 -39 10 -2 23 -24 4
16 1 9 -18 28 -103 -42 -27
66 39 -12 6 -23 12 12 -24
12 -61 -71 0 18 -41 -42 -18
-6 27 1 32 20 13 45 -19
11 -25 7 104 51 4 -7 30
-28 58 14 127 -44 -31 -27 120
-40 26 -56 -53 38 6 104 3
-18 -4 16 -2 -15 -103 19 -116
24 -2 51 42 38 -4 -12 13
-20 -17 55 -55 -4 -79 69 -8
-7 -44 4 0 -11 10 34 22
26 -127 -4 -9 -45 5 -13 -77
-21 2 36 22 -20 -4 35 -61
12 -40 -2 -3 42 -5 39 44
56 38 10 34 23 -2 25 -57
8 37 127 127 26 -29 127 -21
31 6 -100 127 -5 72 -53 127
127 -109 -87 -101 -81 1 37 14
-10 2 -4 14 -5 -50 -68 -31
-76 3 2 13 47 4 127 15
16 -95 -28 127 115 -110 -57 -46
100 -7 12 24 127 28 127 16
-9 -64 -55 37 -18 9 -51 15
-106 113 57 79 5 -23 -44 -9
26 46 -68 -36 127 -3 17 -127
-36 127 25 -41 42 -43 -8 -97
127 -19 127 48 127 127 -11 127
-58 -29 127 -112 -57 -96 -19 20
-34 -127 11 -19 -127 -8 77 38
00000000: 06c5 3f15 f324 220c 0514 ff2b fcef 1e2c
00000010: 45e9 d90a fe17 e804 1001 09ee 1c99 d6e5
00000020: 4227 f406 e90c 0ce8 0cc3 b900 12d7 d6ee
00000030: fa1b 0120 140d 2ded 0be7 0768 3304 f91e
00000040: e43a 0e7f d4e1 e578 d81a c8cb 2606 6803
00000050: eefc 10fe f199 138c 18fe 332a 26fc f40d
00000060: ecef 37c9 fcb1 45f8 f9d4 0400 f50a 2216
00000070: 1a81 fcf7 d305 f3b3 eb02 2416 ecfc 23c3
00000080: 0cd8 fefd 2afb 272c 3826 0a22 17fe 19c7
00000090: 0825 7f7f 1ae3 7feb 1f06 9c7f fb48 cb7f
000000a0: 7f93 a99b af01 250e f602 fc0e fbce bce1
000000b0: b403 020d 2f04 7f0f 10a1 e47f 7392 c7d2
000000c0: 64f9 0c18 7f1c 7f10 f7c0 c925 ee09 cd0f
000000d0: 9671 394f 05e9 d4f7 1a2e bcdc 7ffd 1181
000000e0: dc7f 19d7 2ad5 f89f 7fed 7f30 7f7f f57f
000000f0: c6e3 7f90 c7a0 ed14 de81 0bed 81f8 4d26
